/*********************************************
Title:..........JOSM Streets map paint style (J#.mapcss)
Authors:.........JWest and DPat
Contributors:...CStep, SWhit, TBlac +more (citation in progress. writing summaries of settings and
                noting individuals who contributed)
Latest update:..7/22/2016
Summary:........This map paint style was created to improve the visibility of the streets network for 
                easier editing of ways and nodes in the JOSM editor. It is based on the JOSM Default color scheme with some 
                sections pulled from various paint styles with additions by the authors. 
Credit:.........Based on JOSM Default (mapcss) and HDM (by the Humanitarian OSM Team), .

Changelog: 

1.0 
-Added custom highway tag rendering style for easier street editing. Impacts ways and nodes. 
-Removed [surface:*] rendering
1.1
-Removed [access:destination], [access:private], [access:permissive] tag rendering.
-Improved highway:unclassified tag rendering.
1.2.0
-Adjusted nodes; less obtrusive nodes at high zoom.
-Added core_motorway z-index.
-Removed [bridge:aquaduct,viaduct rendering].
-Changed color of [landuse:residentia] polygon for higher visibility.
1.3.0
-Set [motorroad:yes] opacity to 0; will no longer render.
-Set primary width to match other highway widths.
-Adjusted color and width of [highway:motorway]; no longer looks like primary.
-Adjusted primary/motorway_links to render slightly different.
-Changed color of [tunnel:yes] for easier identification.
-Fixed [tunnel:yes] and [bridge:yes] rendering; now visibly renders on all segments.
-Set street name rendering for all highway types to black and white.
1.3.1
-Added node fill color (#000000).
-Adjusted [junction:roundabout] rendering; now renders as black dashes for easier identification.
-Adjusted [Highway:*link] and [junction:roundabout] to render with black dashes (high visibility error ID test).
1.4.0
-Added Fix_me Finder to Style Settings
    -Identifies ways and nodes where incorrect name=fixme or ref:fixme variations exist.
    -Identifies ways and nodes where correct fix_me tags have been added for review.
-Oneway arrow visibility increased 
1.4.1
-Roundabout_visibility setting added to allow for roundabout rendering to be hidden
-Added Route Relation Identification style as a setting
    -Renders a yellow casing on ways that are members of a relation.  

1.4.2

-Added more fixme labels (Fixmes show up very easily)
-Incorporated Snake Roads (useful in cities)
-Altered text-halo to make it 1.2 instead of 1 (makes names easier to read)

1.4.3
-Visible Nodes setting renders large at all zoom levels
-Added "Block Buildings" stlye. This allows you to easily view building overlap and large areas mapped as buildings. 
Useful for dense city building editing.
-Route Relations should render above the selected way

1.4.4
-Removed text-halo from snake roads
-Settings start at "false" - must enable to use
-Changed how street text renders
-Added back bridge=viaduct to bridge rendering color

1.4.5
-Street name text scaling improvements
    -Street name text renders at a lower zoom and renders on highways before residential/local roads
    -Bold text for easier name identification
-Relation viewer setting color changed to light purple
-bridge:viaduct rendering added back
-highway=road|footpath|path now render names if present.

1.5
-Increased text size for territory icons
    -Labels scaled at relative to type of urbanization. e.g. Seattle will render larger text than Queen Anne 
-Adjusted highway:service + service=alley,driveway,other to render differently;
-Increased size of addr:housenumber and addr:postcode text
-Added missing value checks for bridges
    -missing layer value and bridge:yes
    -incorrect layer value and bridge:yes
-Bridge:aquaduct and other unique bridge values render with dashes 
-More visible tunnel styling
-Added z-levels setting
-overlapping ways setting



*********************************************/

meta {
    icon: "dialogs/mappaint/josm_small.png";
}




 canvas {
    fill-color: #000000;
}

/*************************/
/* create style settings */
/*************************/

setting::snakeroads {
  type: boolean;
  label: tr("Snake Roads (Colors based on way ID)");
  default: false;
}


setting::visible_nodes {
  type: boolean;
  label: tr("Create large nodes (at all zoom levels)");
  default: false;
}

setting::block_buildings {
  type: boolean;
  label: tr("Overlapping Buildings");
  default: false;
}


setting::hide_icons {
  type: boolean;
  label: tr("Hide icons at low zoom");
  default: true;
}

setting::shrink_nodes {
  type: boolean;
  label: tr("Less obtrusive node symbols at low zoom");
  default: true;
}

setting::highway_labels {
  type: boolean;
  label: tr("Display street labels (at high zoom)");
  default: true;
}

setting::alt_turn_icons {
  type: boolean;
  label: tr("Use alternative turn restriction icon set");
  default: false;
}


setting::highway_fixme {
  type: boolean;
  label: tr("Fixme Finder (For correct Fixme's)");
  default: true;
}

setting::highway_fixmefalse {
  type: boolean;
  label: tr("Fixme Finder (For incorrect Fixme's)");
  default: true;
}

setting::roundabout_visibility {
  type: boolean;
  label: tr("Roundabout tag visibility");
  default: true;
}

setting::relation_viewer {
  type: boolean;
  label: tr("Display relations on highways");
  default: false;
}





/* Less Obtrusive Nodes - size nodes with zoom level *****************************************/

canvas {
  default-points: false;
}

node|z17- {
  symbol-size:12;
  symbol-shape: square;
  symbol-stroke-color: #ffff00;
  symbol-fill-color:#000000;
  
  /*symbol-fill-color: #ffff00;*/
}

node:connection {

 symbol-fill-opacity: 1;

  symbol-fill-color: #000000;
}

node|z17               { symbol-size: 1; }
way > node|z17         { symbol-size: 2; }
node|z17:connection    { symbol-size: 1; }

node|z18               { symbol-size: 4; }
way > node|z18         { symbol-size: 2; }
node|z18:connection    { symbol-size: 4; }

node|z19-20              { symbol-size: 5; }
way > node|z19-20        { symbol-size: 3; }
node|z19-20:connection   { symbol-size: 5; }

node|z21-22              { symbol-size: 6; }
way > node|z21-22        { symbol-size: 4; }
node|z21-22:connection   { symbol-size: 6; }

node|z23-              { symbol-size: 7; }
way > node|z23-        { symbol-size: 5; }
node|z23-:connection   { symbol-size: 7; }





/************************************************************************/


/*********************/
/* turn restrictions */
/*********************/

relation[restriction=no_left_turn][!setting("alt_turn_icons")] {
    icon-image: "vehicle/restriction/turn_restrictions/no_left_turn_red.png";
    set icon_z17;
    text: auto;
}
relation[restriction=no_left_turn][setting("alt_turn_icons")] {
    icon-image: "vehicle/restriction/turn_restrictions/no_left_turn.png";
    set icon_z17;
    text: auto;
}
relation[restriction=no_right_turn][!setting("alt_turn_icons")] {
    icon-image: "vehicle/restriction/turn_restrictions/no_right_turn_red.png";
    set icon_z17;
    text: auto;
}
relation[restriction=no_right_turn][setting("alt_turn_icons")] {
    icon-image: "vehicle/restriction/turn_restrictions/no_right_turn.png";
    set icon_z17;
    text: auto;
}
relation[restriction=no_straight_on][!setting("alt_turn_icons")] {
    icon-image: "vehicle/restriction/turn_restrictions/no_straight_on_red.png";
    set icon_z17;
    text: auto;
}
relation[restriction=no_straight_on][setting("alt_turn_icons")] {
    icon-image: "vehicle/restriction/turn_restrictions/no_straight_on.png";
    set icon_z17;
    text: auto;
}
relation[restriction=no_u_turn] {
    icon-image: "vehicle/restriction/turn_restrictions/no_u_turn.png";
    set icon_z17;
    text: auto;
}
relation[restriction=only_left_turn] {
    icon-image: "vehicle/restriction/turn_restrictions/only_left_turn.png";
    set icon_z17;
    text: auto;
}
relation[restriction=only_right_turn] {
    icon-image: "vehicle/restriction/turn_restrictions/only_right_turn.png";
    set icon_z17;
    text: auto;
}
relation[restriction=only_straight_on] {
    icon-image: "vehicle/restriction/turn_restrictions/only_straight_on.png";
    set icon_z17;
    text: auto;
}
node[restriction] {
    icon-image: "misc/deprecated.png";
    set icon_z17;
    text: auto;
}

/******************/
/* bridge, tunnel */
/******************/


/******************************** new 7/19/16 - Dpatt ********************/
/*insert bridge checks here for default missing layer errors*/


/********************Normal Bridge below**************/

way[bridge=yes]::core_bridge


{
    
    major-z-index: 2;
    object-z-index: -1;
    width: 4;
    casing-width: 4;
    dashes: 2,4;
    casing-color: #26d4d4;
    color: black;
    opacity: 1;
}


way[bridge=aqueduct]::core_bridge,
way[bridge=cantilever]::core_bridge,
way[bridge=covered]::core_bridge,
way[bridge=low_water_crossing]::core_bridge,
way[bridge=trestle]::core_bridge,
way[bridge=viaduct]::core_bridge,
way[bridge=movable]::core_bridge

{
 
    major-z-index: 2;
    object-z-index: -1;
    width: 12;
    casing-width: .5;
    casing-color: #FFB573;
    casing-dashes: 2,3;
    color: #26d4d4;
    opacity: 1;


}
way[tunnel=yes]::core_tunnel,
way[tunnel=culvert]::core_tunnel,
way[tunnel=building_passage]::core_tunnel,
way[tunnel=avalanche_protector]::core_tunnel {
    major-z-index: 2;
    object-z-index: -1;
    width: 6;
    casing-width: 4.5;
    casing-color: #a9f999;
    color: #919191;
    opacity: 1;
}
way[tunnel=yes][railway=all]::core_tunnel {
major-z-index: 2;
    object-z-index: -1;
    width: .5;
    color: tunnel#a9f999;
    opacity: 1;
}

node[oneway],
node[bridge],
node[tunnel?],
node[tunnel?!],
node[cutting?!],
node[embankment?!] {
    icon-image: "misc/deprecated.png";
    set icon_z17;
    text: auto;
}




/*******************//*************************//************************//******************************/

/****************************/
/* access restrictions tags */
/****************************

way[access?!]::core_access {
    z-index: -1;
    width: +2;
    color: no#ff8080;
    dashes: 2,2;
}

way[access=permissive]::core_access {
    z-index: -1;
    width: +2;
    color: permissive#80ff80;
    dashes: 2,2;
}
/*
way[access=private]::core_access {
    z-index: -1;
    width: +2;
    color: private#ff8080;
    dashes: 2,2;
}
*/
node[traffic_sign][access?!] {
    icon-image: "vehicle/restriction/access.png";
    set icon_z17;
}
node[traffic_sign][access=permissive],
node[traffic_sign][access=private],
node[traffic_sign][access=destination] {
    icon-image: "misc/no_icon.png";
    set icon_z17;
    text: auto;
}
node[traffic_sign][bicycle?!] {
    icon-image: "vehicle/restriction/bicycle.png";
    set icon_z17;
}
node[traffic_sign][bicycle=designated] {
    icon-image: "vehicle/restriction/bicycle-designated.png";
    set icon_z17;
    text: auto;
}
node[traffic_sign][foot?!] {
    icon-image: "vehicle/restriction/foot.png";
    set icon_z17;
}
node[traffic_sign][foot=designated] {
    icon-image: "vehicle/restriction/foot-designated.png";
    set icon_z17;
    text: auto;
}
node[traffic_sign][goods?!],
node[traffic_sign][hgv?!] {
    icon-image: "vehicle/restriction/goods.png";
    set icon_z17;
}
node[traffic_sign][horse?!] {
    icon-image: "vehicle/restriction/horse.png";
    set icon_z17;
}
node[traffic_sign][horse=designated] {
    icon-image: "vehicle/restriction/horse-designated.png";
    set icon_z17;
}
node[traffic_sign][motorcycle?!] {
    icon-image: "vehicle/restriction/motorbike.png";
    set icon_z17;
}
node[traffic_sign][motorcar?!] {
    icon-image: "vehicle/restriction/motorcar.png";
    set icon_z17;
}
node[traffic_sign][psv?!] {
    icon-image: "vehicle/restriction/psv.png";
    set icon_z17;
}
node[traffic_sign][motorboat?!],
node[traffic_sign][boat?!] {
    icon-image: "misc/no_icon.png";
    set icon_z17;
}
node[noexit=yes] {
    icon-image: "vehicle/restriction/dead_end.png";
    set icon_z17;
}
node[traffic_sign][maxweight] {
    icon-image: "vehicle/restriction/maxweight.png";
    set icon_z17;
}
node[traffic_sign][maxheight] {
    icon-image: "vehicle/restriction/maxheight.png";
    set icon_z17;
}
node[traffic_sign][maxwidth] {
    icon-image: "vehicle/restriction/maxwidth.png";
    set icon_z17;
}
node[traffic_sign][maxlength] {
    icon-image: "vehicle/restriction/maxlength.png";
    set icon_z17;
}
node[traffic_sign][minspeed] {
    icon-image: "vehicle/restriction/minspeed.png";
    set icon_z17;
}
node[traffic_sign][maxstay],
node[traffic_sign][toll] {
    icon-image: "misc/no_icon.png";
    set icon_z17;
}

/*****************************/
/* building/entrance/address */
/*****************************/

node["addr:housenumber"],
node["addr:postcode"] {
    icon-image: "misc/housenumber.png";
    set icon_z14;
    text: auto;
    set text_z16;
    font-size: 10;
    font-weight: bold;
    text-color: white;
    text-halo-color: black;
    text-halo-radius: 1.1;
}
way["addr:interpolation"=odd] {
    width: 1;
    color: address#1C86EE;
    dashes: 15,4;
}
way["addr:interpolation"=even] {
    width: 1;
    color: address#1C86EE;
    dashes: 4,4;
}
way["addr:interpolation"=all],
way["addr:interpolation"=alphabetic] {
    width: 1;
    color: address#1C86EE;
    dashes: 2,2;
}
area[building][!building?!] {
    fill-color: building#cb9999;
}
area[building:part][!building:part?!] {
    fill-color: buildingpart#dcbbbb;
}
node[building][!building?!] {
    icon-image: "misc/landmark/building.png";
    set icon_z17;
    text: auto;
}
node[building=garage] {
    icon-image: "misc/landuse/garages.png";
    set icon_z17;
    text: auto;
}
node[building=garages] {
    icon-image: "misc/landuse/garages.png";
    set icon_z17;
    text: auto;
}
node[entrance=yes] {
    icon-image: "misc/entrance-yes.png";
    set icon_z17;
    text: auto;
}
node[entrance=main] {
    icon-image: "misc/entrance-main.png";
    set icon_z17;
    text: auto;
}
node[entrance=service] {
    icon-image: "misc/entrance-service.png";
    set icon_z17;
    text: auto;
}
node[entrance=exit] {
    icon-image: "misc/entrance-exit.png";
    set icon_z17;
    text: auto;
}
node[entrance=emergency] {
    icon-image: "misc/entrance-emergency.png";
    set icon_z17;
    text: auto;
}
node[building=entrance],
node[building:part] {
    icon-image: "misc/deprecated.png";
    set icon_z17;
    text: auto;
}

/****************/
/* barrier tags */
/****************/

way[barrier=bollard] {
    width: 2;
    color: barrier#F0F050;
    dashes: 3,9;
}
node[barrier=bollard] {
    icon-image: "presets/bollard.png";
    set icon_z17;
    text: auto;
}
node[barrier=gate] {
    icon-image: "vehicle/gate.png";
    set icon_z17;
    text: auto;
}
way[barrier=yes],
way[barrier=hedge],
way[barrier=fence],
way[barrier=wall],
way[barrier=guard_rail],
way[barrier=city_wall],
way[barrier=retaining_wall],
way[barrier=block],
way[barrier=chain],
way[barrier=ditch],
way[barrier=kerb] {
    width: 2;
    color: barrier#F0F050;
}
way[barrier=retaining_wall],
way[barrier=kerb] {
    repeat-image: "misc/cliff-pattern.png";
    repeat-image-align: top;
}
node[barrier=hedge],
node[barrier=wall],
node[barrier=guard_rail],
node[barrier=city_wall],
node[barrier=retaining_wall],
node[barrier=ditch] {
    icon-image: "misc/deprecated.png";
    set icon_z17;
    text: auto;
}
node[barrier=kerb] {
    icon-image: "vehicle/kerb.svg";
    set icon_z17;
    text: auto;
}
node[barrier=block] {
    icon-image: "vehicle/block.svg";
    set icon_z17;
    text: auto;
}
node[barrier=chain] {
    icon-image: "vehicle/chain.svg";
    set icon_z17;
    text: auto;
}
node[barrier=stile] {
    icon-image: "vehicle/stile.svg";
    set icon_z17;
    text: auto;
}
node[barrier=turnstile] {
    icon-image: "vehicle/turnstile.png";
    set icon_z17;
    text: auto;
}
node[barrier=cycle_barrier] {
    icon-image: "vehicle/cycle_barrier.png";
    set icon_z17;
    text: auto;
}
node[barrier=lift_gate] {
    icon-image: "vehicle/lift_gate.png";
    set icon_z17;
    text: auto;
}
node[barrier=swing_gate] {
    icon-image: "vehicle/swing_gate.png";
    set icon_z17;
    text: auto;
}
area[barrier=toll_booth]:closed {
    fill-color: barrier#F0F050;
}
node[barrier=toll_booth] {
    icon-image: "vehicle/toll_booth.png";
    set icon_z17;
    text: auto;
}
node[barrier=entrance] {
    icon-image: "vehicle/entrance.png";
    set icon_z17;
    text: auto;
}
node[barrier=cattle_grid] {
    icon-image: "vehicle/cattle_grid.png";
    set icon_z17;
    text: auto;
}
node[barrier=border_control] {
    icon-image: "vehicle/border_control.png";
    set icon_z17;
    text: auto;
}
node[barrier=sally_port] {
    icon-image: "vehicle/sally_port.png";
    set icon_z17;
    text: auto;
}
node[barrier=spikes] {
    icon-image: "vehicle/spikes.svg";
    set icon_z17;
    text: auto;
}
node[barrier=fence],
node[barrier=kissing_gate],
node[barrier=bump_gate],
node[barrier=portcullis],
node[barrier=bus_trap],
node[barrier=drawbridge],
node[barrier=hampshire_gate] {
    icon-image: "misc/no_icon.png";
    set icon_z17;
    text: auto;
}

/****************/
/* highway tags */
/****************/



way[motorroad=yes]::core_motorroad {
    major-z-index: 9;
    z-index: -1;
    width: 1;
    color: motorroad#3377ff;
    opacity: 0;
}

way[highway=motorway] {
    z-index: 8;
    width: 7;
    color: motorway#E46D31;
}
way[highway=motorway_link] {
    z-index: 8;
    width: 5;
    dashes: 9,9;
    dashes-background-color: motordashed#E46D31;
    color: street#ffffff;
}
way[highway=trunk] {
    z-index: 7;
    width: 7;
    color: trunk#809BC0;
    
}
way[highway=trunk_link] {
    z-index: 7;
    width: 5;
    dashes: 9,9;
    dashes-background-color: trunkdashed#809BC0;
    color: street#ffffff;
}
way[highway=primary] {
    z-index: 6;
    width: 3.1;
    casing-width: 2;
    casing-color: #E46D71;
    color: #919191;
}
way[highway=primary_link] {
    z-index: 6;
    width: 5;
    dashes: 9,9;
    dashes-background-color: primarydashed#E46D71;
    color: street#e0e0e0;
}
way[highway=secondary] {
    z-index: 5;
    width: 3;
    casing-width: 2;
    casing-color: #FDBF6F;
    color: #919191;
}
way[highway=secondary_link] {
    z-index: 5;
    width: 5;
    dashes: 9,9;
    dashes-background-color: secondarydashed#FDBF6F;
    color: street#ffffff;
}
way[highway=tertiary] {
    z-index: 4;
    width: 3;
    casing-width: 2;
    casing-color: pink;
    color: #919191;
}
way[highway=tertiary_link] {
    z-index: 4;
    width: 5;
    dashes: 9,9;
    dashes-background-color: tertiarydashed#FEFECB;
    color: tertiary#919191;
}
way[highway=unclassified] {
    z-index: 3;
    width: 3;
    casing-width: 1.7;
    casing-color: #443d3e;
    color: #b9b9b9;
}
way[highway=escape] {
    width: 3;
    color: street#c0c0c0;
    dashes: 3,3;
}
way[highway=road] {
    z-index: 3;
    width: 4;
    color: #770000;
}
way[highway=track][area?], relation[type=multipolygon][highway=track] {
    fill-color: highway_track#6e541c;
}
way[highway=track] {
    z-index: 3;
    width: 3;
    color: highway_track#6e541c;
}
way[highway=residential] {
    z-index: 3; 
    width: 4;
    casing-width: .5;
    casing-color: #000000;
    color: street#E8E8E8;
}
way[highway=living_street] {
    z-index: 2;
    width: 5;
    dashes: 9,9;
    dashes-background-color: livingdashed#00ff00;
    color: street#c0c0c0;
}
way[highway=service][area?], 
relation[type=multipolygon][highway=service] {
    fill-color: service#847e6b;
}
way[highway=service][!area?] {
    z-index: 2;
    width: 4;
    color: service#45588c;
}
way[highway=service][service=alley],
way[highway=service][service=driveway],
way[highway=service][service=parking_aisle]
 {
    z-index: 2;
    width: 4;
    dashes: 7, 15;
    dashes-background-color: servicedashed#45588c;
    color: service#5F04B4;
}
way[highway=service][service=drive-through]
 {
    z-index: 2;
    width: 4;
    dashes: 7, 15;
    dashes-background-color: servicedashed#45588c;
    color: service#FFFF00;
}
way[highway=bridleway] {
    z-index: 2;
    width: 1;
    color: horse#a18559;
}
way[highway=cycleway] {
    z-index: 2;
    width: 1;
    color: bicycle#b100ff;
}
way[highway=footway][area?], relation[type=multipolygon][highway=footway] {
    fill-color: foot#aaee55;
}
way[highway=footway][!area?] {
    width: 1;
    color: foot#aaee55;
}
way[highway=path][bicycle!=designated][bicycle!=official][foot!=designated][foot!=official] {
    width: 1;
    dashes: 9,9;
    color: foot#aaee55;
}
/* display path with bicycle/foot=designated/official as if it was cycleway/footway */
way[highway=path][bicycle=designated],
way[highway=path][bicycle=official] {
    width: 1;
    color: bicycle#b100ff;
}
way[highway=path][foot=designated],
way[highway=path][foot=official] {
    width: 1;
    color: foot#aaee55;
}
way[highway=path][bicycle=designated][foot=designated],
way[highway=path][bicycle=official][foot=official] {
    width: 1;
    color: bicycle#b100ff;
    dashes: 14,14;
    dashes-background-color: foot#aaee55;
}

way[highway=cycleway][foot=yes],
way[highway=path][bicycle=designated][foot=yes],
way[highway=path][bicycle=official][foot=yes] {
    width: 1;
    color: bicycle#b100ff;
    dashes: 21,7;
    dashes-background-color: foot#aaee55;
}
way[highway=footway][bicycle=yes],
way[highway=path][bicycle=yes][foot=designated],
way[highway=path][bicycle=yes][foot=official] {
    width: 1;
    color: foot#aaee55;
    dashes: 21,7;
    dashes-background-color: bicycle#b100ff;
} 

way[highway=pedestrian][area?], relation[type=multipolygon][highway=pedestrian] {
    width: 3;
    color: foot#aaee55;
    fill-color: foot#aaee55;
}
way[highway=pedestrian] {
    width: 3;
    color: foot#aaee55;
}
way[highway=steps] {
    width: 3;
    color: foot#aaee55;
    dashes: 2,2;
}
way[value] {
    width: 1;
    color: #f73e92;
}
node[highway=steps] {
    icon-image: "transport/steps.png";
    set icon_z17;
    text: auto;
}
way[highway=bus_guideway] {
    width: 1;
    color: rail#404040;
    dashes: 9,9;
}
way[highway=raceway] {
    width: 1;
    color: raceway#ff80ff;
}
way[highway=raceway][area?], relation[type=multipolygon][highway=raceway] {
    fill-color: raceway#ff80ff;
}

area[junction=yes] {
    fill-color: junction#c0c0c0;
}



/* Snake Road Styles 

Author DPatt & Csteph 

*/

/* Set Snake Road Settings */




/* Set Snake Road/Visible Node Styles */


way[highway][setting("snakeroads")] {
    crc:  CRC32_checksum(eval(osm_id()))/429496.7296;
    /*text: eval(osm_id());*/
}


/* Node Styles 

node:connection {
  symbol-size:9;
  symbol-shape: circle;
  symbol-stroke-color: #00ffff;
  symbol-fill-color: white;
}

*/

/* 33 different special selected colors */
way[highway][prop(crc)<303]
{
        color: #8B864E;
       
        casing-width: 2;
        casing-color: black;
}
                /* --------- */
way[highway][prop(crc)>=303][prop(crc)<606]
{
        color: #b88142;
        
        casing-width: 2;
        casing-color: black;
}
                /* --------- */
way[highway][prop(crc)>=606][prop(crc)<909]
{
        color: #a3fe8f;
        
        casing-width: 2;
        casing-color: black;
}
                /* --------- */
way[highway][prop(crc)>=909][prop(crc)<1212]
{
        color: #b8674c;
        
        casing-width: 2;
        casing-color: black;
}
                /* --------- */
way[highway][prop(crc)>=1212][prop(crc)<1515]
{
        color: #f4ff6b;
        
        casing-width: 2;
        casing-color: black;
}
                /* --------- */
way[highway][prop(crc)>=1515][prop(crc)<1818]
{
        color: #81c0ff;
        
        casing-width: 2;
        casing-color: black;
}
                /* --------- */
way[highway][prop(crc)>=1818][prop(crc)<2121]
{
        color: #6b8e23;
        
        casing-width: 2;
        casing-color: black;
}
                /* --------- */
way[highway][prop(crc)>=2121][prop(crc)<2424]
{
        color: #e1bd6a;
        
        casing-width: 2;
        casing-color: black;
}
                /* --------- */
way[highway][prop(crc)>=2424][prop(crc)<2727]
{
        color: #7fffd4;
       
        casing-width: 2;
        casing-color: black;
}
                /* --------- */
way[highway][prop(crc)>=2727][prop(crc)<3030]
{
        color: #8a2be2;
        
        casing-width: 2;
        casing-color: black;
}
                /* --------- */
way[highway][prop(crc)>=3030][prop(crc)<3333]
{
        color: #a52a2a;
        
        casing-width: 2;
        casing-color: black;
}
                /* --------- */
way[highway][prop(crc)>=3333][prop(crc)<3636]
{
        color: #f0b9a6;
       
        casing-width: 2;
        casing-color: black;
}
                /* --------- */
way[highway][prop(crc)>=3636][prop(crc)<3939]
{
        color: #8fbc8f;
        
        casing-width: 2;
        casing-color: black;
}
                /* --------- */
way[highway][prop(crc)>=3939][prop(crc)<4242]
{
        color: #1b7777;
        
        casing-width: 2;
        casing-color: black;
}
                /* --------- */
way[highway][prop(crc)>=4242][prop(crc)<4545]
{
        color: #ff1493;
        
        casing-width: 2;
        casing-color: black;
}
                /* --------- */
way[highway][prop(crc)>=4545][prop(crc)<4848]
{
        color: #0072e2;
        
        casing-width: 2;
        casing-color: black;
}
                /* --------- */
way[highway][prop(crc)>=4848][prop(crc)<5151]
{
        color: #008f00;
        
        casing-width: 2;
        casing-color: black;
}
                /* --------- */
way[highway][prop(crc)>=5151][prop(crc)<5454]
{
        color: #ffcc00;
        
        casing-width: 2;
        casing-color: black;
}
                /* --------- */
way[highway][prop(crc)>=5454][prop(crc)<5757]
{
        color: #BF9017;
        
        casing-width: 2;
        casing-color: black;
}
                /* --------- */
way[highway][prop(crc)>=5757][prop(crc)<6060]
{
        color: #adff2f;
        
        casing-width: 2;
        casing-color: black;
}
                /* --------- */
way[highway][prop(crc)>=6060][prop(crc)<6363]
{
        color: #ff69b4;
        
        casing-width: 2;
        casing-color: black;
}
                /* --------- */
way[highway][prop(crc)>=6363][prop(crc)<6666]
{
        color: #cd5c5c;
        
        casing-width: 2;
        casing-color: black;
}
                /* --------- */
way[highway][prop(crc)>=6666][prop(crc)<6969]
{
        color: #7d5a07;
        
        casing-width: 2;
        casing-color: black;
}
                /* --------- */
way[highway][prop(crc)>=6969][prop(crc)<7272]
{
        color: #824600;
        
        casing-width: 2;
        casing-color: black;
}
                /* --------- */
way[highway][prop(crc)>=7272][prop(crc)<7575]
{
        color: #f08080;
        
        casing-width: 2;
        casing-color: black;
}
                /* --------- */
way[highway][prop(crc)>=7575][prop(crc)<7878]
{
        color: #F75617;
        
        casing-width: 2;
        casing-color: black;
}
                /* --------- */
way[highway][prop(crc)>=7878][prop(crc)<8181]
{
        color: #54d954;
        
        casing-width: 2;
        casing-color: black;
}
                /* --------- */
way[highway][prop(crc)>=8181][prop(crc)<8484]
{
        color: #ba55d3;
        
        casing-width: 2;
        casing-color: black;
}
                /* --------- */
way[highway][prop(crc)>=8484][prop(crc)<8787]
{
        color: #9370db;
        
        casing-width: 2;
        casing-color: black;
}
                /* --------- */
way[highway][prop(crc)>=8787][prop(crc)<9090]
{
        color: #ff7c00;
        
        casing-width: 2;
        casing-color: black;
}
                /* --------- */
way[highway][prop(crc)>=9090][prop(crc)<9393]
{
        color: #3cb371;
        
        casing-width: 2;
        casing-color: black;
}
                /* --------- */
way[highway][prop(crc)>=9393][prop(crc)<9696]
{
        color: #707000;
        
        casing-width: 2;
        casing-color: black;
}
                /* --------- */
way[highway][prop(crc)>=9696]
{
        color: #ff4444;
        
        casing-width: 2;
        casing-color: black;
}





/* FIXME STYLES */

/*******************************************************************************************/

/*  title: "FIXME_Finder";
    icon: "error_small.png";
    shortdescription: "FIXME Highlight Warnings";
    description: "This MapCSS style highlights ways/Polygons that contain a "Fixme" attribute.
    This style may be used alone or combined with other styles such as Potlatch2 and Mapnik (Tested in JOSM only).";
    version: "1.0";
    author: "DPatt";
    min-josm-version: 9900;


/* Highlights Nodes/Ways which contain correct "FIXME" tags */


node["fixme"][setting("highway_fixme")], 
node["FIXME"][setting("highway_fixme")],
node["FIX_ME"][setting("highway_fixme")],
node["FIX ME"][setting("highway_fixme")],
node["fix_me"][setting("highway_fixme")],
node["fix me"][setting("highway_fixme")],
node["Fix Me"][setting("highway_fixme")],
node["Fix me"][setting("highway_fixme")],
node["Fix_Me"][setting("highway_fixme")],
node["FIX_Me"][setting("highway_fixme")],
node["FIX_me"][setting("highway_fixme")],
way["FIX-me"][setting("highway_fixme")],
way["fix-me"][setting("highway_fixme")],
way["Fix-Me"][setting("highway_fixme")],
way["FIX-ME"][setting("highway_fixme")],
way["fix-ME"][setting("highway_fixme")]
{
    width: 20; casing-width: 1;
    color: orange;
        z-index: -2;
}
way["fixme"][setting("highway_fixme")], 
way["FIXME"][setting("highway_fixme")],
way["FIX_ME"][setting("highway_fixme")],
way["FIX ME"][setting("highway_fixme")],
way["fix_me"][setting("highway_fixme")],
way["fix me"][setting("highway_fixme")],
way["Fix Me"][setting("highway_fixme")],
way["Fix me"][setting("highway_fixme")],
way["Fix_Me"][setting("highway_fixme")],
way["FIX_Me"][setting("highway_fixme")],
way["FIX_me"][setting("highway_fixme")],
way["fix_ME"][setting("highway_fixme")],
way["FIX-me"][setting("highway_fixme")],
way["fix-me"][setting("highway_fixme")],
way["Fix-Me"][setting("highway_fixme")],
way["FIX-ME"][setting("highway_fixme")],
way["fix-ME"][setting("highway_fixme")]

{
    color: white; width:20; opacity:0.5; z-index: 9;
    dashes: 20,30;
    dashes-background-color: orange;
}


/* Highlights Nodes which contain incorrect FIXME tags 
Author: DPatt. Added 3/14/16*/


node[name=fixme][setting("highway_fixmefalse")],
node[ref=FIXME][setting("highway_fixmefalse")], 
node[ref=fixme][setting("highway_fixmefalse")], 
node[name=FIXME][setting("highway_fixmefalse")], 
node[name="fix_me"][setting("highway_fixmefalse")], 
node[name="Fix_Me"][setting("highway_fixmefalse")], 
node[name="Fix_me"][setting("highway_fixmefalse")], 
node[ref="Fix_Me"][setting("highway_fixmefalse")], 
node[ref="Fix_me"][setting("highway_fixmefalse")], 
node[ref="fix_me"][setting("highway_fixmefalse")], 
node[ref="FIX_ME"][setting("highway_fixmefalse")], 
node[name="FIX_ME"][setting("highway_fixmefalse")], 
node[name="FIX ME"][setting("highway_fixmefalse")], 
node[name="fix me"][setting("highway_fixmefalse")], 
node[name="Fix Me"][setting("highway_fixmefalse")], 
node[ref="FIX ME"][setting("highway_fixmefalse")], 
node[ref="Fix Me"][setting("highway_fixmefalse")], 
node[ref="fix me"][setting("highway_fixmefalse")]
{

    icon-image: "misc/deprecated.png";
    set icon_z10;
    text: auto;


}


/* Highlights Ways which contain incorrect FIXME tages */

way[name=fixme][setting("highway_fixmefalse")]::core_motorroad,
way[name=FIXME][setting("highway_fixmefalse")]::core_motorroad,
way[name=FIXME][setting("highway_fixmefalse")]::core_motorroad,
way[name="FIX_ME"][setting("highway_fixmefalse")]::core_motorroad,
way[name=fixme][setting("highway_fixmefalse")]::core_motorroad,
way[name="fix_me"][setting("highway_fixmefalse")]::core_motorroad, 
way[name="Fix_Me"][setting("highway_fixmefalse")]::core_motorroad, 
way[name="fix_ME"][setting("highway_fixmefalse")]::core_motorroad, 
way[name="Fix_ME"][setting("highway_fixmefalse")]::core_motorroad,
way[name="FIX_ME"][setting("highway_fixmefalse")]::core_motorroad, 
way[name="FIX ME"][setting("highway_fixmefalse")]::core_motorroad, 
way[name="fix me"][setting("highway_fixmefalse")]::core_motorroad, 
way[name="Fix Me"][setting("highway_fixmefalse")]::core_motorroad, 
way[name="Fix_me"][setting("highway_fixmefalse")]::core_motorroad, 
way[name=FIXME][setting("highway_fixmefalse")]::core_motorroad, 
way[ref=FIXME][setting("highway_fixmefalse")]::core_motorroad, 
way[ref=fixme][setting("highway_fixmefalse")]::core_motorroad, 
way[ref=FIXME][setting("highway_fixmefalse")]::core_motorroad, 
way[ref=fixme][setting("highway_fixmefalse")]::core_motorroad, 
way[ref="fix_ME"][setting("highway_fixmefalse")]::core_motorroad, 
way[ref="Fix_ME"][setting("highway_fixmefalse")]::core_motorroad, 
way[ref="Fix_Me"][setting("highway_fixmefalse")]::core_motorroad, 
way[ref="Fix_me"][setting("highway_fixmefalse")]::core_motorroad, 
way[ref="fix_me"][setting("highway_fixmefalse")]::core_motorroad, 
way[ref="FIX_ME"][setting("highway_fixmefalse")]::core_motorroad, 
way[ref="FIX ME"][setting("highway_fixmefalse")]::core_motorroad, 
way[ref="Fix Me"][setting("highway_fixmefalse")]::core_motorroad, 
way[ref="fix me"][setting("highway_fixmefalse")]::core_motorroad
{

    z-index: 9;
    color: orange; 
    font-size: 20;
    width:20; 
    opacity:.5; 
    dashes: 20,30;
    dashes-background-color: purple;

}




/*Roundabouts rendering. Adding a section for highway tag-specific roundabout rendering. 
unmuting the area[junction=roundabout] section will add a polygon fill to roundabouts.***********/

/*
area[junction=roundabout] {
    fill-color: roundabout#8BE291;  
}

way[junction=roundabout] {
    object-z-index: 1;
    width: 1;
    dashes: 9,9;
    color: #00BB3F;
}*/

way[highway=motorway][junction=roundabout][setting("roundabout_visibility")] {
    z-index: 8;
    width: 4;
    casing-width: 2;
    casing-color: #E46D31;
    color: #000000;
    dashes: 15, 15;
}
way[highway=trunk][junction=roundabout][setting("roundabout_visibility")] {
    z-index: 7;
    width: 3.7;
    casing-width: 2;
    casing-color: #809BC0; 
    color: #000000;
    dashes: 15, 15;
}
way[highway=primary][junction=roundabout][setting("roundabout_visibility")] {
    z-index: 6;
    width: 3.1;
    casing-width: 2;
    casing-color: #E46D71;
    color: #000000;
    dashes: 15, 15;
}
way[highway=secondary][junction=roundabout][setting("roundabout_visibility")] {
    z-index: 5;
    width: 3;
    casing-width: 2;
    casing-color: #FDBF6F;
    color: #000000;
    dashes: 15, 15;
}
way[highway=tertiary][junction=roundabout][setting("roundabout_visibility")] {
    z-index: 4;
    width: 3;
    casing-width: 2;
    casing-color: #FEFECB;
    color: #000000;
    dashes: 15, 15;
}
way[highway=residential][junction=roundabout][setting("roundabout_visibility")] {
    z-index: 3;
    width: 2.8;
    casing-width: 1;
    casing-color: #E8E8E8;
    color: #000000;
    dashes: 15, 15;
}
way[highway=service][junction=roundabout][setting("roundabout_visibility")] {
    z-index: 3;
    width: 2.8;
    casing-width: 1.3;
    casing-color: #45588c;
    color: #000000;
    dashes: 15, 15;
}
way[highway=unclassified][junction=roundabout][setting("roundabout_visibility")] {
    z-index: 3;
    width: 2.8;
    casing-width: 1;
    casing-color: #b9b9b9;
    color: #000000;
    dashes: 15, 15;
}
way[highway=track][junction=roundabout][setting("roundabout_visibility")] {
    z-index: 3; 
    width: 4;
    dashes-background-color: rndtrack#000000;
    color: track#6e541c;
    dashes: 15,15;
}

area[junction=roundabout][highway=motorway_link][setting("roundabout_visibility")],
area[junction=roundabout][highway=trunk_link][setting("roundabout_visibility")],
area[junction=roundabout][highway=primary_link][setting("roundabout_visibility")],
area[junction=roundabout][highway=secondary_link][setting("roundabout_visibility")],
area[junction=roundabout][highway=tertiary_link][setting("roundabout_visibility")] {
    fill-color: roundabout#9D0000;

}
/********** end of roundabout rendering section - added for tracking purposes*****************************/


node[junction=yes] {
    icon-image: "misc/no_icon.png";
    set icon_z17;
    text: auto;
}
node[highway=traffic_mirror] {
    icon-image: "vehicle/traffic_mirror.svg";
    set icon_z17;
    text: auto;
}
node[highway=milestone] {
    icon-image: "vehicle/milestone.svg";
    set icon_z17;
    text: auto;
}
node[direction=clockwise] {
    icon-image: "vehicle/restriction/roundabout_left.png";
    set icon_z17;
    text: auto;
}
node[highway=mini_roundabout] {
    icon-image: "vehicle/restriction/roundabout_left.png";
    set icon_z17;
    text: auto;
}
node:righthandtraffic[highway=mini_roundabout] {
    icon-image: "vehicle/restriction/roundabout_right.png";
    set icon_z17;
}
node[highway=stop] {
    icon-image: "vehicle/restriction/stop.png";
    set icon_z17;
    text: auto;
}
node[highway=give_way] {
    icon-image: "vehicle/restriction/right_of_way.png";
    set icon_z17;
    text: auto;
}
node[highway=traffic_signals] {
    icon-image: "vehicle/traffic_signals.svg";
    set icon_z17;
    text: auto;
}
node[highway=traffic_signals][crossing][crossing!=no] {
    icon-image: "vehicle/traffic_signals_crossing.svg";
    set icon_z17;
    text: auto;
}
node[highway=traffic_signals][crossing_ref=zebra] {
    icon-image: "vehicle/traffic_signals_crossing_ref_zebra.svg";
    set icon_z17;
    text: auto;
}
node[highway=traffic_signals][crossing=island] {
    icon-image: "vehicle/traffic_signals_crossing_island.svg";
    set icon_z17;
    text: auto;
}
node[highway=traffic_signals][crossing=traffic_signals] {
    icon-image: "vehicle/traffic_signals_crossing_traffic_signals.svg";
    set icon_z17;
    text: auto;
}
node[highway=street_lamp] {
    icon-image: "misc/streetlamp.png";
    set icon_z17;
    text: auto;
}
node[highway=speed_camera] {
    icon-image: "vehicle/restriction/speed_trap.png";
    set icon_z17;
    text: auto;
}
relation[type=enforcement] >[role="device"] node {
    icon-image: "vehicle/restriction/speed_trap.png";
    set icon_z17;
    text: auto;
}
node[traffic_sign=city_limit] {
    icon-image: "vehicle/restriction/citylimit.png";
    set icon_z17;
    text: auto;
}
node[highway=crossing] {
    icon-image: "vehicle/crossing.svg";
    set icon_z17;
    text: auto;
}
node[highway=crossing][crossing=unmarked] {
    icon-image: "vehicle/crossing_unmarked.svg";
    set icon_z17;
    text: auto;
}
node[highway=crossing][crossing=island] {
    icon-image: "vehicle/crossing_island.svg";
    set icon_z17;
    text: auto;
}
node[highway=crossing][crossing_ref=zebra] {
    icon-image: "vehicle/crossing_ref_zebra.svg";
    set icon_z17;
    text: auto;
}
node[highway=crossing][crossing=traffic_signals] {
    icon-image: "vehicle/crossing_traffic_signals.svg";
    set icon_z17;
    text: auto;
}
node[highway=incline], node[highway=incline_steep] {
    icon-image: "vehicle/restriction/incline.png";
    set icon_z17;
    text: auto;
}
node[highway=motorway_junction] {
    icon-image: "vehicle/motorway_junction.svg";
    set icon_z17;
    text: auto;
}
area[highway=services] {
    fill-color: services#c0c0c0;
}
node[highway=services] {
    icon-image: "vehicle/services.png";
    set icon_z17;
    text: auto;
}
area[highway=rest_area] {
    fill-color: services#c0c0c0;
}
node[highway=rest_area] {
    icon-image: "vehicle/parking.png";
    set icon_z17;
    text: auto;
}
node[highway=ford], node[ford?] {
    icon-image: "misc/ford.svg";
    set icon_z17;
    text: auto;
}
way[ford?]::core_ford {
    z-index: 1;
    width: 2;
    color: water#0000ff;
    dashes: 9,9;
}
area[highway=platform]:closed {
    fill-color: highway_platform#c0c0c0;
}
way[highway=platform] {
    width: 2;
    color: highway_platform#c0c0c0;
}
node[highway=turning_circle] {
    icon-image: "vehicle/turning_circle.png";
    set icon_z17;
    text: auto;
}
node[highway=turning_loop] {
    icon-image: "vehicle/turning_loop.png";
    set icon_z17;
    text: auto;
}
node[highway=passing_place] {
    icon-image: "vehicle/passing_place.png";
    set icon_z17;
    text: auto;
}
area[highway=elevator] {
    fill-color: elevator#a6bace;
}
node[highway=elevator] {
    icon-image: "service/elevator.png";
    set icon_z17;
    text: auto;
}
way[highway=construction] {
    width: 2;
    color: construction#ffff00;
    dashes: 9,9;
}
node[highway=construction] {
    icon-image: "misc/construction.png";
    set icon_z17;
    text: auto;
}
area[highway=emergency_access_point] {
    fill-color: emergency_access_point#c0c0c0;
}
node[highway=emergency_access_point] {
    icon-image: "service/emergency_access_point.png";
    set icon_z17;
    text: auto;
}
node[highway=motorway], node[highway=motorway_link],
node[highway=trunk], node[highway=trunk_link],
node[highway=primary], node[highway=primary_link],
node[highway=secondary], node[highway=secondary_link],
node[highway=tertiary], node[highway=tertiary_link],
node[highway=unclassified],
node[highway=road],
node[highway=unsurfaced],
node[highway=track],
node[highway=residential],
node[highway=living_street],
node[highway=service],
node[highway=bridleway],
node[highway=cycleway],
node[highway=footway],
node[highway=path],
node[highway=pedestrian],
node[highway=bus_guideway],
node[highway=platform] {
    icon-image: "misc/deprecated.png";
    set icon_z17;
    text: auto;
}

/************************/
/* traffic_calming tags */
/************************/

node[traffic_calming] {
    icon-image: "vehicle/traffic_calming_blue.png";
    set icon_z17;
    text: auto;
}
node[traffic_calming=chicane] {
    icon-image: "vehicle/chicane.svg";
    set icon_z17;
    text: auto;
}
node[traffic_calming=choker] {
    icon-image: "vehicle/chocker.svg";
    set icon_z17;
    text: auto;
}
node[traffic_calming=island] {
    icon-image: "vehicle/island.svg";
    set icon_z17;
    text: auto;
}

/****************/
/* junction tag */
/****************/

node[junction=roundabout] {
    icon-image: "vehicle/restriction/roundabout_left.png";
    set icon_z17;
    text: auto;
}
node:righthandtraffic[junction=roundabout] {
    icon-image: "vehicle/restriction/roundabout_right.png";
    set icon_z17;
}

/*****************/
/* cycleway tags */
/*****************/

way[oneway?][cycleway=lane]:righthandtraffic::core_cycleway,
way[oneway=-1][cycleway=opposite_lane]:righthandtraffic::core_cycleway {
    set lR;
    set righthandtr;
}
way[oneway?][cycleway=opposite_lane]:righthandtraffic::core_cycleway,
way[oneway=-1][cycleway=lane]:righthandtraffic::core_cycleway {
    set lL;
    set righthandtr;
}
way[oneway?][cycleway=lane]!.righthandtr::core_cycleway,
way[oneway=-1][cycleway=opposite_lane]!.righthandtr::core_cycleway {
    set lL;
}
way[oneway?][cycleway=opposite_lane]!.righthandtr::core_cycleway,
way[oneway=-1][cycleway=lane]!.righthandtr::core_cycleway {
    set lR;
}
way[cycleway:left=lane]::core_cycleway {
    set lL;
}
way[cycleway:right=lane]::core_cycleway {
    set lR;
}
way[oneway=no][cycleway=lane]::core_cycleway,
way[!oneway][cycleway=lane]::core_cycleway {
    set lL;
    set lR;
}

way[oneway?][cycleway=track]:righthandtraffic::core_cycleway,
way[oneway=-1][cycleway=opposite_track]:righthandtraffic::core_cycleway {
    set tR;
    set righthandtr;
}
way[oneway?][cycleway=opposite_track]:righthandtraffic::core_cycleway,
way[oneway=-1][cycleway=track]:righthandtraffic::core_cycleway {
    set tL;
    set righthandtr;
}
way[oneway?][cycleway=track]!.righthandtr::core_cycleway,
way[oneway=-1][cycleway=opposite_track]!.righthandtr::core_cycleway {
    set tL;
}
way[oneway?][cycleway=opposite_track]!.righthandtr::core_cycleway,
way[oneway=-1][cycleway=track]!.righthandtr::core_cycleway {
    set tR;
}
way[cycleway:left=track]::core_cycleway {
    set tL;
}
way[cycleway:right=track]::core_cycleway {
    set tR;
}
way[oneway=no][cycleway=track]::core_cycleway,
way[!oneway][cycleway=track]::core_cycleway {
    set tL;
    set tR;
}
/*
way.lR::core_cycleway {
    width: 2;
    color: bicycle#b100ff;
    dashes: 6, 10;
    offset: 0 - (prop("width", "default") / 2) - 2;
    major-z-index: 2.1;
    modifier: true;
}
way[prop("lL","core_cycleway")]::core_cycleway2 {
    width: 2;
    color: bicycle#b100ff;
    dashes: 6, 10;
    offset: (prop("width", "default") / 2) + 2;
    major-z-index: 2.1;
    modifier: true;
}
way.tR::core_cycleway {
    width: 2;
    color: bicycle#b100ff;
    dashes: 25, 8;
    offset: 0 - (prop("width", "default") / 2) - 2;
    major-z-index: 2.1;
    modifier: true;
}
way[prop("tL","core_cycleway")]::core_cycleway2 {
    width: 2;
    color: bicycle#b100ff;
    dashes: 25, 8;
    offset: (prop("width", "default") / 2) + 2;
    major-z-index: 2.1;
    modifier: true;
}

way[cycleway=opposite]::core_cycleway {
    object-z-index: 1;
    width: +0;
    color: bicycle#b100ff;
    dashes: 4,10;
}
node[cycleway=lane], node[cycleway=opposite_lane],
node[cycleway=track], node[cycleway=opposite_track],
node[cycleway=opposite] {
    icon-image: "misc/deprecated.png";
    set icon_z17;
    text: auto;
}

/******************/
/* tracktype tags */
/******************/

way[highway=track][tracktype=grade1] {
    dashes: 8,1;
}
way[highway=track][tracktype=grade2] {
    dashes: 6,2;
}
way[highway=track][tracktype=grade3] {
    dashes: 4,3;
}
way[highway=track][tracktype=grade4] {
    dashes: 4,5;
}
way[highway=track][tracktype=grade5] {
    dashes: 4,7;
}

/**************/
/* piste tags */
/**************/

way[route=ski]::core_piste {
    z-index: -1;
    modifier: false;
    width: 6;
    color: ski#809bc0;
}
area[piste:difficulty=easy][!highway]:closed::core_piste {
    fill-color: piste_easy#0000ff;
}
way[piste:difficulty=easy]::core_piste {
    z-index: -1; /* below line style from highway=* tag */
    modifier: false; /* suppress default line if there is no style on default layer */
    width: 6;
    color: piste_easy#0000ff;
}
area[piste:difficulty=intermediate][!highway]:closed::core_piste {
    fill-color: piste_intermediate#ff0000;
}
way[piste:difficulty=intermediate]::core_piste {
    z-index: -1;
    modifier: false;
    width: 6;
    color: piste_intermediate#ff0000;
}
area[piste:difficulty=advanced][!highway]:closed::core_piste {
    fill-color: piste_advanced#606060;
}
way[piste:difficulty=advanced]::core_piste {
    z-index: -1;
    modifier: false;
    width: 6;
    color: piste_advanced#606060;
}
area[piste:difficulty=expert][!highway]:closed::core_piste {
    fill-color: piste_expert#606060;
}
way[piste:difficulty=expert]::core_piste {
    z-index: -1;
    modifier: false;
    width: 6;
    color: piste_expert#606060;
}
area[piste:difficulty=freeride][!highway]:closed::core_piste {
    fill-color: piste_freeride#ffff00;
}
way[piste:difficulty=freeride]::core_piste {
    z-index: -1;
    modifier: false;
    width: 6;
    color: piste_freeride#ffff00;
}
area[piste:difficulty=novice][!highway]:closed::core_piste {
    fill-color: piste_novice#00ff00;
}
way[piste:difficulty=novice]::core_piste {
    z-index: -1;
    modifier: false;
    width: 6;
    color: piste_novice#00ff00;
}
node[piste:type=downhill],
node[piste:type=nordic],
node[piste:type=skitour],
node[piste:type=sled],
node[piste:type=sleigh],
node[piste:type=snow_park] {
    icon-image: "sport/skiing.png";
    set icon_z17;
}

/**************/
/* power tags */
/**************/

node[power=tower] {
    icon-image: "misc/landmark/power/tower_small.png";
    set icon_z17;
    text: auto;
}
node[power=pole] {
    icon-image: "misc/landmark/power/pole.png";
    set icon_z17;
    text: auto;
}
way[power=line],
way[power=minor_line] {
    width: 1;
    color: power#eeeeee;
}
way[power=cable] {
    width: 1;
    color: power#eeeeee;
    dashes: 9,9;
}
node[power=plant],
node[power=sub_station],
node[power=line],
node[power=cable],
node[power=minor_line] {
    icon-image: "misc/deprecated.png";
    set icon_z17;
    text: auto;
}
area[power=plant],
area[power=substation],
area[power=transformer],
area[power=compensator],
area[power=converter],
area[power=generator] {
    fill-color: power#eeeeee;
}
node[power=cable_distribution_cabinet],
node[power=generator] {
    icon-image: "misc/landmark/power.png";
    set icon_z17;
    text: auto;
}
node[power=substation] {
    icon-image: "icons/power_substation.n.16.png";
    set icon_z17;
    text: auto;
}
node[power=transformer] {
    icon-image: "misc/landmark/power/transformer.png";
    icon-width: 16;
    set icon_z17;
    text: auto;
}

/*************************/
/* generator:source tags */
/*************************/

area[generator:source=nuclear],
area[generator:source=wind],
area[generator:source=hydro],
area[generator:source=tidal],
area[generator:source=wave],
area[generator:source=osmotic],
area[generator:source=geothermal],
area[generator:source=solar],
area[generator:source=coal],
area[generator:source=gas],
area[generator:source=biomass],
area[generator:source=biofuel],
area[generator:source=biogas],
area[generator:source=oil],
area[generator:source=diesel],
area[generator:source=gasoline],
area[generator:source=waste] {
    fill-color: power#eeeeee;
}
node[generator:source=nuclear] {
    icon-image: "presets/power_source-nuclear.svg";
    set icon_z17;
    text: auto;
}
node[generator:source=wind] {
    icon-image: "presets/power_source-wind.svg";
    set icon_z17;
    text: auto;
}
node[generator:source=hydro],
node[generator:source=tidal],
node[generator:source=wave],
node[generator:source=osmotic] {
    icon-image: "presets/power_source-water.svg";
    set icon_z17;
    text: auto;
}
node[generator:source=geothermal] {
    icon-image: "presets/power_source-geothermal.svg";
    set icon_z17;
    text: auto;
}
node[generator:source=solar] {
    icon-image: "presets/power_source-sun.svg";
    set icon_z17;
    text: auto;
}
node[generator:source=coal] {
    icon-image: "presets/power_source-coal.svg";
    set icon_z17;
    text: auto;
}
node[generator:source=gas] {
    icon-image: "presets/power_source-gas.svg";
    set icon_z17;
    text: auto;
}
node[generator:source=biomass],
node[generator:source=biofuel],
node[generator:source=biogas] {
    icon-image: "presets/power_source-biofuel.svg";
    set icon_z17;
    text: auto;
}
node[generator:source=oil],
node[generator:source=diesel],
node[generator:source=gasoline] {
    icon-image: "presets/power_source-oil.svg";
    set icon_z17;
    text: auto;
}
node[generator:source=waste] {
    icon-image: "presets/power_source-waste.svg";
    set icon_z17;
    text: auto;
}
node[power_source] {
    icon-image: "misc/deprecated.png";
    set icon_z17;
    text: auto;
}
/*****************/
/* man_made tags */
/*****************/

area[man_made=beacon],
area[man_made=bridge],
area[bridge:support],
area[man_made=chimney],
area[man_made=crane],
area[man_made=gasometer],
area[man_made=storage_tank],
area[man_made=bunker_silo],
area[man_made=lighthouse],
area[man_made=monitoring_station],
area[man_made=mineshaft] {
    fill-color: manmade#d8d8d8;
}
node[man_made=beacon] {
    icon-image: "misc/landmark/beacon.png";
    set icon_z17;
    text: auto;
}
node[man_made=bridge] {
    icon-image: "misc/deprecated.png";
    set icon_z17;
    text: auto;
}
node[bridge:support] {
    icon-image: "transport/bridge/support.svg";
    set icon_z17;
    text: auto;
}
node[man_made=chimney] {
    icon-image: "misc/landmark/chimney.png";
    set icon_z17;
    text: auto;
}
node[man_made=crane] {
    icon-image: "misc/landmark/crane.png";
    set icon_z17;
    text: auto;
}
node[man_made=flagpole] {
    icon-image: "misc/flag.png";
    set icon_z17;
    text: auto;
}
node[man_made=gasometer] {
    icon-image: "presets/gasometer.png";
    icon-width: 16;
    set icon_z17;
    text: auto;
}
node[man_made=storage_tank] {
    icon-image: "presets/storage_tank.png";
    icon-width: 16;
    set icon_z17;
    text: auto;
}
node[man_made=bunker_silo] {
    icon-image: "bunker_silo.svg";
    set icon_z17;
    text: auto;
}
area[man_made=groyne]:closed {
    fill-color: manmade#d8d8d8;
}
way[man_made=groyne] {
    width: 2;
    color: manmade#d8d8d8;
}
area[man_made=breakwater]:closed {
    fill-color: manmade#d8d8d8;
}
way[man_made=breakwater] {
    width: 2;
    color: manmade#d8d8d8;
}
node[man_made=lighthouse] {
    icon-image: "misc/landmark/lighthouse.png";
    set icon_z17;
    text: auto;
}
node[man_made=monitoring_station] {
    icon-image: "misc/landmark/measurement_station.png";
    set icon_z17;
    text: auto;
}
node[man_made=mineshaft] {
    icon-image: "misc/landmark/mine.png";
    set icon_z17;
    text: auto;
}
node[man_made=adit] {
    icon-image: "misc/landmark/adit.png";
    set icon_z17;
    text: auto;
}
area[man_made=pier]:closed {
    fill-color: pier#660000;
}
way[man_made=pier] {
    width: 2;
    color: pier#660000;
}
node[man_made=pier] {
    icon-image: "nautical/pier.png";
    set icon_z17;
    text: auto;
}
way[embankment?][!highway][!railway][!waterway],
way[man_made=embankment][!highway][!railway][!waterway] {
    repeat-image: "misc/embankment-pattern.png";
    repeat-image-align: top;
    width: 1;
    color: embankment#c14d00;
}
way[embankment?][highway],
way[embankment?][railway],
way[embankment?][waterway],
way[man_made=embankment][highway],
way[man_made=embankment][railway],
way[man_made=embankment][waterway] {
    repeat-image: "misc/embankment-pattern-centered.png";
}
way[man_made=pipeline] {
    width: 2;
    color: pipeline#660000;
}
node[man_made=breakwater],
node[man_made=groyne],
node[man_made=embankment],
node[man_made=pipeline] {
    icon-image: "misc/deprecated.png";
    set icon_z17;
    text: auto;
}
node[man_made=petroleum_well] {
    icon-image: "misc/no_icon.png";
    set icon_z17;
    text: auto;
}
area[man_made=reservoir_covered],
area[man_made=surveillance],
area[man_made=tower],
area[man_made=wastewater_plant],
area[man_made=watermill],
area[man_made=water_tower],
area[man_made=water_well],
area[man_made=windmill],
area[man_made=works],
area[man_made=water_works] {
    fill-color: manmade#d8d8d8;
}
node[man_made=reservoir_covered] {
    icon-image: "misc/landmark/reservoir_covered.png";
    set icon_z17;
    text: auto;
}
node[man_made=surveillance] {
    icon-image: "presets/surveillance.png";
    icon-width: 16;
    set icon_z17;
    text: auto;
}
node[man_made=survey_point] {
    icon-image: "misc/landmark/survey_point.png";
    set icon_z17;
    text: auto;
}
node[man_made=tower] {
    icon-image: "misc/landmark/tower.png";
    set icon_z17;
    text: auto;
}
node[man_made=wastewater_plant] {
    icon-image: "misc/landmark/wastewater_plant.png";
    set icon_z17;
    text: auto;
}
node[man_made=watermill] {
    icon-image: "misc/landmark/watermill.png";
    set icon_z17;
    text: auto;
}
node[man_made=water_tower] {
    icon-image: "misc/landmark/water_tower.svg";
    set icon_z17;
    text: auto;
}
node[man_made=water_well] {
    icon-image: "misc/landmark/water_well.png";
    set icon_z17;
    text: auto;
}
node[man_made=windmill] {
    icon-image: "misc/landmark/windmill.png";
    set icon_z17;
    text: auto;
}
node[man_made=works] {
    icon-image: "misc/landmark/works.png";
    set icon_z17;
    text: auto;
}
node[man_made=water_works] {
    icon-image: "misc/landmark/water_works.png";
    set icon_z17;
    text: auto;
}
way[man_made=cutline] {
    width: 2;
    color: cutline#99ff55;
}
node[man_made=cutline] {
    icon-image: "misc/deprecated.png";
    set icon_z17;
    text: auto;
}

/***************/
/* office tags */
/***************/

area[office=company],
area[office=government] {
    fill-color: office#de5696;
}
node[office=company] {
    icon-image: "icons/office_blue.png";
    set icon_z17;
    text: auto;
}
node[office=government] {
    icon-image: "icons/office_pink.png";
    set icon_z17;
    text: auto;
}

/****************/
/* leisure tags */
/****************/

area[leisure=sports_centre],
area[leisure=golf_course],
area[leisure=stadium],
area[leisure=horse_riding],
area[leisure=water_park] {
    fill-color: leisure#c7f1a3;
}
node[leisure=sports_centre] {
    icon-image: "sport/centre.png";
    set icon_z17;
    text: auto;
}
node[leisure=golf_course] {
    icon-image: "sport/golf.svg";
    set icon_z17;
    text: auto;
}
node[leisure=stadium] {
    icon-image: "sport/stadium.png";
    set icon_z17;
    text: auto;
}
node[leisure=horse_riding] {
    icon-image: "presets/equestrian.png";
    icon-width: 16;
    set icon_z17;
    text: auto;
}
node[leisure=water_park] {
    icon-image: "leisure/water_park.png";
    set icon_z17;
    text: auto;
}
area[leisure=track][!area?!]:closed {
    fill-color: leisuretrack#d4f4b9;
}
way[leisure=track] {
    width: 2;
    color: leisuretrack#d4f4b9;
}
node[leisure=track] {
    icon-image: "sport/track.png";
    set icon_z17;
    text: auto;
}
area[leisure=pitch] {
    fill-color: pitch#baee8d;
}
node[leisure=pitch] {
    icon-image: "sport/pitch.png";
    set icon_z17;
    text: auto;
}
area[leisure=marina] {
    fill-color: marina#0070cf;
}
node[leisure=marina] {
    icon-image: "nautical/marina.png";
    set icon_z17;
    text: auto;
}
way[leisure=slipway] {
    width: 2;
    color: leisure#c7f1a3;
}
node[leisure=slipway] {
    icon-image: "nautical/slipway.png";
    set icon_z17;
    text: auto;
}
area[leisure=fishing],
area[leisure=nature_reserve],
area[leisure=park],
area[leisure=playground],
area[leisure=garden],
area[leisure=common],
area[leisure=firepit] {
    fill-color: leisure#c7f1a3;
}
node[leisure=fishing] {
    icon-image: "sport/fishing.png";
    set icon_z17;
    text: auto;
}
node[leisure=nature_reserve] {
    icon-image: "leisure/nature_reserve.png";
    set icon_z17;
    text: auto;
}
node[leisure=park] {
    icon-image: "misc/deprecated.png";
    set icon_z17;
    text: auto;
}
node[leisure=playground] {
    icon-image: "leisure/playground.png";
    set icon_z17;
    text: auto;
}
node[leisure=garden] {
    icon-image: "leisure/garden.png";
    set icon_z17;
    text: auto;
}
node[leisure=common] {
    icon-image: "leisure/common.png";
    set icon_z17;
    text: auto;
}
node[leisure=firepit] { 
    icon-image: "leisure/firepit.svg"; 
    set icon_z17; 
    text: auto; 
}
node[leisure=picnic_table] {
    icon-image: "leisure/picnic.png";
    set icon_z17;
    text: auto;
}
area[leisure=swimming_pool] {
    fill-color: swimming_pool#51c4ef;
}
node[leisure=swimming_pool] {
    icon-image: "sport/pool.png";
    set icon_z17;
    text: auto;
}
area[leisure=miniature_golf],
area[leisure=dog_park],
area[leisure=ice_rink],
area[leisure=sauna] {
    fill-color: leisure#c7f1a3;
}
node[leisure=miniature_golf] {
    icon-image: "sport/miniature_golf.svg";
    set icon_z17;
    text: auto;
}
node[leisure=dog_park] {
    icon-image: "presets/dogpark.png";
    icon-width: 16;
    set icon_z17;
    text: auto;
}
node[leisure=ice_rink] {
    icon-image: "sport/ice_hockey.png";
    set icon_z17;
    text: auto;
}
node[leisure=sauna] {
    icon-image: "leisure/sauna.png";
    set icon_z17;
    text: auto;
}

/********************/
/* advertising tags */
/********************/

node[advertising=column] {
    icon-image: "leisure/advertising_column.svg";
    set icon_z17;
    text: auto;
}
node[advertising=billboard] {
    icon-image: "leisure/billboard.svg";
    set icon_z17;
    text: auto;
}

/*************/
/* shop tags */
/*************/

area[shop=supermarket],
area[shop=convenience],
area[shop=bakery],
area[shop=butcher],
area[shop=bicycle],
area[shop=doityourself],
area[shop=dry_cleaning],
area[shop=laundry],
area[shop=outdoor],
area[shop=kiosk],
area[shop=alcohol],
area[shop=beverages],
area[shop=books],
area[shop=boutique],
area[shop=car],
area[shop=car_dealer],
area[shop=car_repair],
area[shop=tyres],
area[shop=chemist],
area[shop=clothes],
area[shop=computer],
area[shop=confectionery],
area[shop=copyshop],
area[shop=curtain],
area[shop=cycle_repair],
area[shop=department_store],
area[shop=deli],
area[shop=electronics],
area[shop=erotic],
area[shop=furniture],
area[shop=fabric],
area[shop=florist],
area[shop=frame],
area[shop=gift],
area[shop=greengrocer],
area[shop=garden_centre],
area[shop=hairdresser],
area[shop=hardware],
area[shop=hearing_aids],
area[shop=hifi],
area[shop=jewelry],
area[shop=kitchen],
area[shop=mall],
area[shop=mobile_phone],
area[shop=motorcycle],
area[shop=musical_instrument],
area[shop=newsagent],
area[shop=optician],
area[shop=medical_supply],
area[shop=paint],
area[shop=pawnbroker],
area[shop=seafood],
area[shop=shoes],
area[shop=sports],
area[shop=stationery],
area[shop=tailor],
area[shop=travel_agency],
area[shop=toys],
area[shop=vacuum_cleaner],
area[shop=variety_store],
area[shop=video],
area[shop=bookmaker],
area[shop=lottery],
area[shop=shopping_centre],
area[shop=pet],
area[shop=photo],
area[shop=ticket],
area[shop=interior_decoration],
area[shop=car_parts],
area[shop=video_games],
area[shop=bed],
area[shop=beauty],
area[shop=tea],
area[shop=coffee],
area[shop=antiques],
area[shop=music],
area[shop=funeral_directors],
area[shop=wine],
area[shop=farm],
area[shop=tattoo],
area[shop=art],
area[shop=bag] {
    fill-color: shop#00005f;
}
node[shop=supermarket] {
    icon-image: "shop/supermarket.svg";
    set icon_z17;
    text: auto;
}
node[shop=convenience] {
    icon-image: "shop/convenience.png";
    set icon_z17;
    text: auto;
}
node[shop=bakery] {
    icon-image: "shop/groceries/bakery.png";
    set icon_z17;
    text: auto;
}
node[shop=butcher] {
    icon-image: "shop/groceries/butcher.png";
    set icon_z17;
    text: auto;
}
node[shop=bicycle] {
    icon-image: "sport/bicycle.png";
    set icon_z17;
    text: auto;
}
node[shop=doityourself] {
    icon-image: "shop/diy_store.png";
    set icon_z17;
    text: auto;
}
node[shop=dry_cleaning],
node[shop=laundry] {
    icon-image: "shop/laundry.png";
    set icon_z17;
    text: auto;
}
node[shop=outdoor] {
    icon-image: "shop/outdoor.png";
    set icon_z17;
    text: auto;
}
node[shop=kiosk] {
    icon-image: "shop/kiosk.png";
    set icon_z17;
    text: auto;
}
node[shop=beverages] {
    icon-image: "shop/beverages.png";
    set icon_z17;
    text: auto;
}
node[shop=alcohol] {
    icon-image: "shop/alcohol.png";
    set icon_z17;
    text: auto;
}
node[shop=books] {
    icon-image: "shop/book.svg";
    set icon_z17;
    text: auto;
}
node[shop=boutique] {
    icon-image: "shop/boutique.png";
    set icon_z17;
    text: auto;
}
node[shop=car],
node[shop=car_dealer] {
    icon-image: "vehicle.png";
    set icon_z17;
    text: auto;
}
node[shop=car_repair] {
    icon-image: "vehicle/repair_shop.png";
    set icon_z17;
    text: auto;
}
node[shop=tyres] {
    icon-image: "vehicle/tyres.png";
    set icon_z17;
    text: auto;
}
node[shop=chemist] {
    icon-image: "shop/chemist.png";
    set icon_z17;
    text: auto;
}
node[shop=clothes] {
    icon-image: "shop/clothes.png";
    set icon_z17;
    text: auto;
}
node[shop=computer] {
    icon-image: "shop/computer.png";
    set icon_z17;
    text: auto;
}
node[shop=confectionery] {
    icon-image: "shop/groceries/confectionery.png";
    set icon_z17;
    text: auto;
}
node[shop=copyshop] {
    icon-image: "shop/copyshop.png";
    set icon_z17;
    text: auto;
}
node[shop=curtain] {
    icon-image: "shop/curtain.png";
    set icon_z17;
    text: auto;
}
node[shop=cycle_repair] {
    icon-image: "sport/bicycle.png";
    set icon_z17;
    text: auto;
}
node[shop=department_store] {
    icon-image: "shop/mall.png";
    set icon_z17;
    text: auto;
}
node[shop=deli] {
    icon-image: "shop/groceries/deli.png";
    set icon_z17;
    text: auto;
}
node[shop=electronics] {
    icon-image: "shop/electronics.png";
    set icon_z17;
    text: auto;
}
node[shop=erotic] {
    icon-image: "shop/erotic.png";
    set icon_z17;
    text: auto;
}
node[shop=furniture] {
    icon-image: "shop/furniture.png";
    set icon_z17;
    text: auto;
}
node[shop=fabric] {
    icon-image: "shop/fabric.png";
    set icon_z17;
    text: auto;
}
node[shop=florist] {
    icon-image: "shop/florist.png";
    set icon_z17;
    text: auto;
}
node[shop=frame] {
    icon-image: "shop/frame.png";
    set icon_z17;
    text: auto;
}
node[shop=gift] {
    icon-image: "presets/present.svg";
    set icon_z17;
    text: auto;
}
node[shop=greengrocer] {
    icon-image: "shop/groceries/greengrocer.png";
    set icon_z17;
    text: auto;
}
node[shop=garden_centre] {
    icon-image: "shop/garden_centre.png";
    set icon_z17;
    text: auto;
}
node[shop=hairdresser] {
    icon-image: "shop/hairdresser.png";
    set icon_z17;
    text: auto;
}
node[shop=hardware] {
    icon-image: "shop/hardware.png";
    set icon_z17;
    text: auto;
}
node[shop=hearing_aids] {
    icon-image: "shop/hearing_aids.png";
    set icon_z17;
    text: auto;
}
node[shop=hifi] {
    icon-image: "shop/hifi.png";
    set icon_z17;
    text: auto;
}
node[shop=jewelry] {
    icon-image: "shop/jewelry.png";
    set icon_z17;
    text: auto;
}
node[shop=kitchen] {
    icon-image: "shop/kitchen.png";
    set icon_z17;
    text: auto;
}
node[shop=mall] {
    icon-image: "shop/mall.png";
    set icon_z17;
    text: auto;
}
node[shop=mobile_phone] {
    icon-image: "shop/mobile_phone.png";
    set icon_z17;
    text: auto;
}
node[shop=motorcycle] {
    icon-image: "vehicle/motorbike.png";
    set icon_z17;
    text: auto;
}
node[shop=musical_instrument] {
    icon-image: "shop/musical_instrument.png";
    set icon_z17;
    text: auto;
}
node[shop=newsagent] {
    icon-image: "shop/news.svg";
    set icon_z17;
    text: auto;
}
node[shop=optician] {
    icon-image: "shop/optician.svg";
    set icon_z17;
    text: auto;
}
node[shop=medical_supply] {
    icon-image: "shop/medical_supply.svg";
    set icon_z17;
    text: auto;
}
node[shop=paint] {
    icon-image: "shop/paint.png";
    set icon_z17;
    text: auto;
}
node[shop=pawnbroker] {
    icon-image: "presets/pawnbroker.svg";
    set icon_z17;
    text: auto;
}
node[shop=seafood] {
    icon-image: "shop/groceries/seafood.png";
    set icon_z17;
    text: auto;
}
node[shop=shoes] {
    icon-image: "shop/shoes.png";
    set icon_z17;
    text: auto;
}
node[shop=sports] {
    icon-image: "sport/multi.png";
    set icon_z17;
    text: auto;
}
node[shop=stationery] {
    icon-image: "shop/stationery.png";
    set icon_z17;
    text: auto;
}
node[shop=tailor] {
    icon-image: "shop/tailor.png";
    set icon_z17;
    text: auto;
}
node[shop=travel_agency] {
    icon-image: "presets/travel.png";
    icon-width: 16;
    set icon_z17;
    text: auto;
}
node[shop=toys] {
    icon-image: "shop/toys.png";
    set icon_z17;
    text: auto;
}
node[shop=vacuum_cleaner] {
    icon-image: "shop/vacuum_cleaner.png";
    set icon_z17;
    text: auto;
}
node[shop=variety_store] {
    icon-image: "shop/variety_store.png";
    set icon_z17;
    text: auto;
}
node[shop=video] {
    icon-image: "shop/video.png";
    set icon_z17;
    text: auto;
}
node[shop=bookmaker] {
    icon-image: "presets/lottery.svg";
    set icon_z17;
    text: auto;
}
node[shop=lottery] {
    icon-image: "presets/lottery.svg";
    set icon_z17;
    text: auto;
}
/* duplicate of shopping_centre? */
node[shop=shopping_centre] {
    icon-image: "shop/mall.png";
    set icon_z17;
    text: auto;
}
node[shop=pet] {
    icon-image: "shop/pet.svg";
    set icon_z17;
    text: auto;
}
node[shop=photo] {
    icon-image: "shop/photo.svg";
    set icon_z17;
    text: auto;
}
node[shop=ticket] {
    icon-image: "shop/ticket.svg";
    set icon_z17;
    text: auto;
}
node[shop=interior_decoration] {
    icon-image: "shop/interior_decoration.svg";
    set icon_z17;
    text: auto;
}
node[shop=car_parts] {
    icon-image: "vehicle/car_parts.svg";
    set icon_z17;
    text: auto;
}
node[shop=video_games] {
    icon-image: "shop/video_games.png";
    set icon_z17;
    text: auto;
}
node[shop=bed] {
    icon-image: "shop/bed.svg";
    set icon_z17;
    text: auto;
}
node[shop=beauty] {
    icon-image: "shop/beauty.svg";
    set icon_z17;
    text: auto;
}
node[shop=tea] {
    icon-image: "shop/groceries/tea.svg";
    set icon_z17;
    text: auto;
}
node[shop=coffee] {
    icon-image: "shop/groceries/coffee.svg";
    set icon_z17;
    text: auto;
}
node[shop=antiques] {
    icon-image: "shop/antique.svg";
    set icon_z17;
    text: auto;
}
node[shop=music] {
    icon-image: "shop/music.svg";
    set icon_z17;
    text: auto;
}
node[shop=funeral_directors] {
    icon-image: "shop/funeral_directors.svg";
    set icon_z17;
    text: auto;
}
node[shop=wine] {
    icon-image: "shop/wine.svg";
    set icon_z17;
    text: auto;
}
node[shop=farm] {
    icon-image: "presets/apple.png";
    set icon_z17;
    text: auto;
}
node[shop=tattoo] {
    icon-image: "shop/tattoo.svg";
    set icon_z17;
    text: auto;
}
node[shop=art] {
    icon-image: "shop/art.svg";
    set icon_z17;
    text: auto;
}
node[shop=bag] {
    icon-image: "shop/bag.svg";
    set icon_z17;
    text: auto;
}

/****************/
/* amenity tags */
/****************/

area[amenity=pub],
area[amenity=biergarten],
area[amenity=nightclub],
area[amenity=stripclub],
area[amenity=casino],
area[amenity=brothel],
area[amenity=cafe],
area[amenity=restaurant],
area[amenity=food_court],
area[amenity=fast_food],
area[amenity=bar],
area[amenity=ice_cream] {
    fill-color: amenity#ecba52;
}
node[amenity=pub] {
    icon-image: "food/pub.png";
    set icon_z17;
    text: auto;
}
node[amenity=biergarten] {
    icon-image: "food/biergarten.png";
    set icon_z17;
    text: auto;
}
node[amenity=nightclub] {
    icon-image: "leisure/discoball.svg";
    set icon_z17;
    text: auto;
}
node[amenity=stripclub] {
    icon-image: "leisure/nightclub.png";
    set icon_z17;
    text: auto;
}
node[amenity=casino] {
    icon-image: "leisure/casino.svg";
    set icon_z17;
    text: auto;
}
node[amenity=brothel] {
    icon-image: "leisure/stripclub.png";
    set icon_z17;
    text: auto;
}
node[amenity=cafe] {
    icon-image: "food/cafe.png";
    set icon_z17;
    text: auto;
}
node[amenity=restaurant] {
    icon-image: "food/restaurant.svg";
    set icon_z17;
    text: auto;
}
node[amenity=food_court] {
    icon-image: "food/restaurant.png";
    set icon_z17;
    text: auto;
}
node[amenity=fast_food] {
    icon-image: "food/fastfood.png";
    set icon_z17;
    text: auto;
}
node[amenity=bar] {
    icon-image: "food/bar.png";
    set icon_z17;
    text: auto;
}
node[amenity=ice_cream] {
    icon-image: "food/icecream.png";
    set icon_z17;
    text: auto;
}
area[amenity=bicycle_parking]:closed {
    fill-color: amenity_traffic#f7efb7;
}
way[amenity=bicycle_parking] {
    width: 2;
    color: amenity_traffic#f7efb7;
}
area[amenity=parking_space],
area[amenity=parking],
area[amenity=motorcycle_parking],
area[amenity=bicycle_rental],
area[amenity=bicycle_repair_station],
area[amenity=car_rental],
area[amenity=car_sharing],
area[amenity=car_wash],
area[amenity=taxi],
area[amenity=fuel] {
    fill-color: amenity_traffic#f7efb7;
}
node[amenity=parking_space] {
    icon-image: "vehicle/parking/parking_space.svg";
    set icon_z17;
    text: auto;
}
node[amenity=parking] {
    icon-image: "vehicle/parking.png";
    set icon_z17;
    text: auto;
}
node[amenity=parking_entrance] {
    icon-image: "vehicle/parking.png";
    set icon_z17;
    text: auto;
}
node[amenity=parking_entrance][parking=multi-storey],
node[amenity=parking][parking=multi-storey] {
    icon-image: "vehicle/parking/multi-storey.png";
    set icon_z17;
    text: auto;
}
node[amenity=parking_entrance][parking=underground],
node[amenity=parking][parking=underground] {
    icon-image: "vehicle/parking/underground.png";
    set icon_z17;
    text: auto;
}
node[amenity=motorcycle_parking] {
    icon-image: "vehicle/parking/motorbike.png";
    set icon_z17;
    text: auto;
}
node[amenity=bicycle_parking] {
    icon-image: "vehicle/parking/bicycle.png";
    set icon_z17;
    text: auto;
}
node[park_ride][park_ride!=no] {
    icon-image: "vehicle/parking/park_ride.svg";
    set icon_z17;
    text: auto;
}
node[amenity=parking_space][wheelchair?] {
    icon-image: "vehicle/parking/handicapped.png";
    set icon_z17;
    text: auto;
}
node[amenity=bicycle_rental] {
    icon-image: "vehicle/rental/bicycle.png";
    set icon_z17;
    text: auto;
}
node[amenity=bicycle_repair_station] {
    icon-image: "vehicle/bicycle_repair_station.svg";
    set icon_z17;
    text: auto;
}
node[amenity=car_rental] {
    icon-image: "vehicle/rental/car.png";
    set icon_z17;
    text: auto;
}
node[amenity=car_sharing] {
    icon-image: "vehicle/car_sharing.png";
    set icon_z17;
    text: auto;
}
node[amenity=car_wash] {
    icon-image: "vehicle/car_wash.png";
    set icon_z17;
    text: auto;
}
node[amenity=taxi] {
    icon-image: "transport/taxi.png";
    set icon_z17;
    text: auto;
}
node[amenity=fuel] {
    icon-image: "vehicle/fuel.png";
    set icon_z17;
    text: auto;
}
node[amenity=charging_station] {
    icon-image: "vehicle/fuel/charging_station.png";
    set icon_z17;
    text: auto;
}
node[amenity=grit_bin] {
    icon-image: "misc/grit_bin.png";
    set icon_z17;
    text: auto;
}
node[amenity=telephone] {
    icon-image: "service/telephone.png";
    set icon_z17;
    text: auto;
}
node[amenity=clock] {
    icon-image: "service/clock.svg";
    set icon_z17;
    text: auto;
}
area[amenity=toilets],
area[amenity=shower],
area[amenity=recycling],
area[amenity=sanitary_dump_station] {
    fill-color: amenity_light#f7efb7;
}
node[emergency=phone] {
    icon-image: "vehicle/emergency_phone.png";
    set icon_z17;
    text: auto;
}
node[emergency=defibrillator] {
    icon-image: "presets/aed.svg";
    set icon_z17;
    text: auto;
}
node[amenity=toilets] {
    icon-image: "service/toilets.png";
    set icon_z17;
    text: auto;
}
node[amenity=shower] { 
    icon-image: "service/shower.svg"; 
    set icon_z17; 
    text: auto; 
}
node[amenity=recycling] {
    icon-image: "service/recycling/recycling.svg";
    set icon_z17;
    text: auto;
}
node[amenity=recycling][recycling_type=container] {
    icon-image: "service/recycling/recycling_container.svg";
}
node[amenity=recycling][recycling_type=centre] {
    icon-image: "service/recycling/recycling_centre.svg";
}
node[amenity=waste_basket] {
    icon-image: "service/recycling/trash-bin.png";
    set icon_z17;
    text: auto;
}
node[amenity=waste_disposal] {
    icon-image: "service/recycling/waste_disposal.png";
    set icon_z17;
    text: auto;
}
node[amenity=sanitary_dump_station] {
    icon-image: "service/recycling/sanitary_dump_station.svg";
    set icon_z17;
    text: auto;
}
area[amenity=public_building],
area[amenity=townhall],
area[amenity=embassy],
area[amenity=community_centre] {
    fill-color: amenity_light#f7efb7;
}
node[amenity=public_building] {
    icon-image: "service.png";
    set icon_z17;
    text: auto;
}
node[amenity=townhall] {
    icon-image: "presets/townhall.png";
    set icon_z17;
    text: auto;
}
node[amenity=embassy] {
    icon-image: "service/administration/embassy.png";
    set icon_z17;
    text: auto;
}
node[amenity=community_centre] {
    icon-image: "service/community_centre.png";
    set icon_z17;
    text: auto;
}
area[amenity=water_point],
area[amenity=fountain] {
    fill-color: light_water#00005f;
}
node[amenity=drinking_water] {
    icon-image: "food/drinking_water.png";
    set icon_z17;
    text: auto;
}
node[amenity=water_point] {
    icon-image: "accommodation/camping/water.png";
    set icon_z17;
    text: auto;
}
node[amenity=fountain] {
    icon-image: "misc/fountain.png";
    set icon_z17;
    text: auto;
}
area[amenity=place_of_worship],
area[amenity=grave_yard],
area[amenity=crematorium],
area[amenity=post_office],
area[amenity=studio],
area[amenity=school],
area[amenity=university],
area[amenity=college],
area[amenity=kindergarten],
area[amenity=driving_school] {
    fill-color: amenity_light#f7efb7;
}
node[amenity=place_of_worship] {
    icon-image: "religion.png";
    set icon_z17;
    text: auto;
}
node[amenity=place_of_worship][religion=bahai] {
    icon-image: "religion/bahai.png";
    set icon_z17;
    text: auto;
}
node[amenity=place_of_worship][religion=buddhist] {
    icon-image: "religion/buddhism.png";
    set icon_z17;
    text: auto;
}
node[amenity=place_of_worship][religion=christian] {
    icon-image: "religion/church.png";
    set icon_z17;
    text: auto;
}
node[amenity=place_of_worship][religion=hindu] {
    icon-image: "religion/hinduism.png";
    set icon_z17;
    text: auto;
}
node[amenity=place_of_worship][religion=jain] {
    icon-image: "religion/jainism.png";
    set icon_z17;
    text: auto;
}
node[amenity=place_of_worship][religion=jewish] {
    icon-image: "religion/jewish.png";
    set icon_z17;
    text: auto;
}
node[amenity=place_of_worship][religion=muslim] {
    icon-image: "religion/muslim.png";
    set icon_z17;
    text: auto;
}
node[amenity=place_of_worship][religion=sikh] {
    icon-image: "religion/sikhism.png";
    set icon_z17;
    text: auto;
}
node[amenity=place_of_worship][religion=shinto] {
    icon-image: "religion/shinto.png";
    set icon_z17;
    text: auto;
}
node[amenity=place_of_worship][religion=spiritualist] {
    icon-image: "misc/no_icon.png";
    set icon_z17;
    text: auto;
}
node[amenity=place_of_worship][religion=taoist] {
    icon-image: "religion/taoism.png";
    set icon_z17;
    text: auto;
}
node[amenity=place_of_worship][religion=unitarian] {
    icon-image: "misc/no_icon.png";
    set icon_z17;
    text: auto;
}
node[amenity=place_of_worship][religion=zoroastrian] {
    icon-image: "misc/no_icon.png";
    set icon_z17;
    text: auto;
}
node[amenity=grave_yard] {
    icon-image: "rendering/landuse/cemetery.png";
    set icon_z17;
    text: auto;
}
node[amenity=crematorium] {
    icon-image: "misc/no_icon.png";
    set icon_z17;
    text: auto;
}
node[amenity=post_office] {
    icon-image: "service/post_office.png";
    set icon_z17;
    text: auto;
}
node[amenity=post_box] {
    icon-image: "service/post_box.png";
    set icon_z17;
    text: auto;
}
node[amenity=studio] {
    icon-image: "service/studio.png";
    set icon_z17;
    text: auto;
}
node[amenity=school] {
    icon-image: "education/school.png";
    set icon_z17;
    text: auto;
}
node[amenity=university] {
    icon-image: "education/university.png";
    set icon_z17;
    text: auto;
}
node[amenity=college] {
    icon-image: "education/college.png";
    set icon_z17;
    text: auto;
}
node[amenity=kindergarten] {
    icon-image: "education/kindergarten.png";
    set icon_z17;
    text: auto;
}
node[amenity=driving_school] {
    icon-image: "education/driving_school.png";
    set icon_z17;
    text: auto;
}
area[amenity=pharmacy],
area[amenity=hospital],
area[amenity=clinic],
area[amenity=nursing_home],
area[amenity=social_facility],
area[amenity=nursery],
area[amenity=baby_hatch],
area[amenity=doctors],
area[amenity=dentist],
area[amenity=veterinary] {
    fill-color: health#eeeeee;
}
node[amenity=pharmacy] {
    icon-image: "health/pharmacy.png";
    set icon_z17;
    text: auto;
}
node[amenity=hospital],
node[amenity=clinic] {
    icon-image: "health/hospital.png";
    set icon_z17;
    text: auto;
}
node[amenity=nursing_home],
node[amenity=social_facility],
node[amenity=nursery] {
    icon-image: "misc/no_icon.png";
    set icon_z17;
    text: auto;
}
node[amenity=baby_hatch] {
    icon-image: "health/baby_hatch.png";
    set icon_z17;
    text: auto;
}
node[amenity=doctors] {
    icon-image: "health/doctor.png";
    set icon_z17;
    text: auto;
}
node[amenity=dentist] {
    icon-image: "health/dentist.png";
    set icon_z17;
    text: auto;
}
node[amenity=veterinary] {
    icon-image: "health/veterinary.png";
    set icon_z17;
    text: auto;
}
area[amenity=library],
area[amenity=police],
area[amenity=ranger_station],
area[amenity=fire_station],
area[amenity=bus_station],
area[amenity=ferry_terminal],
area[amenity=theatre],
area[amenity=cinema],
area[amenity=arts_centre],
area[amenity=courthouse],
area[amenity=prison],
area[amenity=bank],
area[amenity=bureau_de_change],
area[amenity=bbq] {
    fill-color: amenity_light#f7efb7;
}
node[amenity=library] {
    icon-image: "shop/library.png";
    set icon_z17;
    text: auto;
}
node[amenity=police] {
    icon-image: "service/police.png";
    set icon_z17;
    text: auto;
}
node[amenity=ranger_station] {
    icon-image: "service/ranger_station.svg";
    set icon_z17;
    text: auto;
}
node[amenity=fire_station] {
    icon-image: "service/firebrigade.png";
    set icon_z17;
    text: auto;
}
node[amenity=bus_station] {
    icon-image: "transport/bus.png";
    set icon_z17;
    text: auto;
}
node[amenity=ferry_terminal] {
    icon-image: "nautical/ferry.png";
    icon-width: 16;
    set icon_z17;
    text: auto;
}
node[amenity=theatre] {
    icon-image: "presets/theater.png";
    icon-width: 16;
    set icon_z17;
    text: auto;
}
node[amenity=cinema] {
    icon-image: "leisure/cinema.png";
    set icon_z17;
    text: auto;
}
node[amenity=arts_centre] {
    icon-image: "service/arts_centre.png";
    set icon_z17;
    text: auto;
}
node[amenity=courthouse] {
    icon-image: "service/administration/courthouse.svg";
    set icon_z17;
    text: auto;
}
node[amenity=prison] {
    icon-image: "service/administration/prison.svg";
    set icon_z17;
    text: auto;
}
node[amenity=bank] {
    icon-image: "money/bank.png";
    set icon_z17;
    text: auto;
}
node[amenity=bureau_de_change] {
    icon-image: "money/exchange.png";
    set icon_z17;
    text: auto;
}
node[amenity=atm] {
    icon-image: "money/atm.png";
    set icon_z17;
    text: auto;
}
way[amenity=bench] {
    width: 2;
    color: amenity_light#f7efb7;
}
node[amenity=bench] {
    icon-image: "leisure/bench.png";
    set icon_z17;
    text: auto;
}
node[amenity=bbq] {
    icon-image: "leisure/bbq.png";
    set icon_z17;
    text: auto;
}
node[emergency=fire_hydrant] {
    icon-image: "service/fire_hydrant.png";
    set icon_z17;
    text: auto;
}
node[amenity=compressed_air] {
    icon-image: "vehicle/compressed_air.svg";
    set icon_z17;
    text: auto;
}
area[amenity=shelter],
area[amenity=marketplace],
area[amenity=wlan] {
    fill-color: amenity_light#f7efb7;
}
node[amenity=shelter] {
    icon-image: "accommodation/shelter.png";
    set icon_z17;
    text: auto;
}
node[amenity=shelter][shelter_type=public_transport] {
    icon-image: "accommodation/shelter_public_transport_brown.png";
    set icon_z17;
    text: auto;
}
node[amenity=shelter][shelter_type=picnic_shelter] {
    icon-image: "accommodation/shelter_picnic_brown.png";
    set icon_z17;
    text: auto;
}
node[amenity=shelter][shelter_type=basic_hut] {
    icon-image: "accommodation/basic_hut_blue.png";
    set icon_z17;
    text: auto;
}
node[amenity=shelter][shelter_type=lean_to] {
    icon-image: "accommodation/shelter_lean_to.svg";
    set icon_z17;
    text: auto;
}
node[amenity=hunting_stand] {
    icon-image: "hunting_stand.png";
    set icon_z17;
    text: auto;
}
node[amenity=marketplace] {
    icon-image: "place/marketplace.png";
    set icon_z17;
    text: auto;
}
node[amenity=wlan] {
    icon-image: "wlan.png";
    set icon_z17;
    text: auto;
}
node[amenity=vending_machine] {
    icon-image: "transport/ticket-machine.png";
    set icon_z17;
}
node[vending=excrement_bags] {
    icon-image: "service/excrement_bags.png";
    set icon_z17;
    text: auto;
}

/**************/
/* craft tags */
/**************/

area[craft=painter],
area[craft=plumber],
area[craft=pottery],
area[craft=stonemason],
area[craft=tiler],
area[craft=window_construction] {
    fill-color: craft#999900;
}
node[craft=painter] {
    icon-image: "craft/painter.png";
    set icon_z17;
    text: auto;
}
node[craft=plumber] {
    icon-image: "craft/plumber.png";
    set icon_z17;
    text: auto;
}
node[craft=pottery] {
    icon-image: "craft/pottery.png";
    set icon_z17;
    text: auto;
}
node[craft=stonemason] {
    icon-image: "craft/stonemason.png";
    set icon_z17;
    text: auto;
}
node[craft=tiler] {
    icon-image: "craft/tiler.png";
    set icon_z17;
    text: auto;
}
node[craft=window_construction] {
    icon-image: "craft/window_construction.png";
    set icon_z17;
    text: auto;
}

/****************/
/* tourism tags */
/****************/

area[tourism=hotel],
area[tourism=motel],
area[tourism=guest_house],
area[tourism=hostel],
area[tourism=chalet],
area[tourism=alpine_hut],
area[tourism=camp_site],
area[tourism=caravan_site] {
    fill-color: hotel#e1a0a2;
}
node[tourism=hotel] {
    icon-image: "accommodation/hotel.svg";
    set icon_z17;
    text: auto;
}
node[tourism=motel] {
    icon-image: "accommodation/motel.svg";
    set icon_z17;
    text: auto;
}
node[tourism=guest_house] {
    icon-image: "accommodation/guest_house.png";
    set icon_z17;
    text: auto;
}
node[tourism=hostel] {
    icon-image: "accommodation/hostel.svg";
    set icon_z17;
    text: auto;
}
node[tourism=chalet] {
    icon-image: "accommodation/chalet.png";
    set icon_z17;
    text: auto;
}
node[tourism=alpine_hut] {
    icon-image: "accommodation/alpine_hut_blue.png";
    set icon_z17;
    text: auto;
}
node[tourism=wilderness_hut] {
    icon-image: "accommodation/wilderness_hut_blue.png";
    set icon_z17;
    text: auto;
}
node[tourism=camp_site] {
    icon-image: "accommodation/camping.png";
    set icon_z17;
    text: auto;
}
node[tourism=caravan_site] {
    icon-image: "accommodation/camping/caravan.png";
    set icon_z17;
    text: auto;
}
area[tourism=picnic_site],
area[tourism=viewpoint],
area[tourism=theme_park],
area[tourism=attraction],
area[tourism=zoo],
area[tourism=museum] {
    fill-color: tourism#e180a2;
}
node[tourism=picnic_site] {
    icon-image: "leisure/picnic.png";
    set icon_z17;
    text: auto;
}
node[tourism=viewpoint] {
    icon-image: "sightseeing/viewpoint.png";
    set icon_z17;
    text: auto;
}
node[tourism=theme_park] {
    icon-image: "leisure/theme_park.png";
    set icon_z17;
    text: auto;
}
node[tourism=attraction] {
    icon-image: "sightseeing.png";
    set icon_z17;
    text: auto;
}
node[tourism=zoo] {
    icon-image: "leisure/zoo.png";
    set icon_z17;
    text: auto;
}
area[tourism=artwork]:closed {
    fill-color: tourism#e180a2;
}
way[tourism=artwork] {
    width: 2;
    color: tourism#e180a2;
}
node[tourism=artwork] {
    icon-image: "service/arts_centre.png";
    set icon_z17;
    text: auto;
}
node[tourism=museum] {
    icon-image: "sightseeing/museum.svg";
    set icon_z17;
    text: auto;
}

/********************/
/* information tags */
/********************/

area[tourism=information] {
    fill-color: tourism#e180a2;
}
node[tourism=information] {
    icon-image: "misc/information.png";
    set icon_z17;
    text: auto;
}
node[tourism=information][information=guidepost] {
    icon-image: "misc/information/guidepost.png";
    set icon_z17;
    text: auto;
}
area[tourism=information][information=office] {
    fill-color: tourism#e180a2;
}
node[tourism=information][information=office] {
    icon-image: "misc/information/informationoffice.png";
    set icon_z17;
    text: auto;
}
node[tourism=information][information=map] {
    icon-image: "misc/information/map.png";
    set icon_z17;
    text: auto;
}
node[tourism=information][information=board] {
    icon-image: "misc/information/board.png";
    set icon_z17;
    text: auto;
}

/*****************/
/* historic tags */
/*****************/

area[historic=castle],
area[historic=monument],
area[historic=memorial],
area[historic=archaeological_site],
area[historic=ruins],
area[historic=battlefield],
area[geological=palaeontological_site],
area[historic=wayside_cross],
area[historic=wayside_shrine],
area[historic=boundary_stone] {
    fill-color: historic#663300;
}
node[historic=castle] {
    icon-image: "sightseeing/castle.svg";
    set icon_z17;
    text: auto;
}
node[historic=monument] {
    icon-image: "sightseeing/monument.png";
    set icon_z17;
    text: auto;
}
node[historic=memorial] {
    icon-image: "sightseeing/memorial.png";
    set icon_z17;
    text: auto;
}
node[historic=archaeological_site] {
    icon-image: "sightseeing/archaeological.png";
    set icon_z17;
    text: auto;
}
node[historic=ruins] {
    icon-image: "sightseeing/ruins.png";
    set icon_z17;
    text: auto;
}
node[historic=battlefield] {
    icon-image: "sightseeing/battlefield.png";
    set icon_z17;
    text: auto;
}
node[geological=palaeontological_site] {
    icon-image: "historic/palaeontological_site.png";
    set icon_z17;
    text: auto;
}
node[historic=wayside_cross] {
    icon-image: "religion/wayside_cross.png";
    set icon_z17;
    text: auto;
}
node[historic=wayside_shrine] {
    icon-image: "religion/wayside_shrine.png";
    set icon_z17;
    text: auto;
}
node[historic=boundary_stone] {
    icon-image: "historic/boundary_stone.png";
    set icon_z17;
    text: auto;
}

/****************/
/* landuse tags */
/****************/

area[landuse],
area[leisure],
area[amenity],
area[place],
area[natural],
area[man_made] {
    z-index: -2; /* put areas that can have other areas inside (e.g. building) a little lower, see #9606 */
}
area[landuse=farm],
area[landuse=farmland] {
    fill-color: farmland#b8e0b1;
}
area[landuse=meadow] {
    fill-color: meadow#b1e0b6;
}
area[landuse=vineyard],
area[landuse=orchard] {
    fill-color: green#b1e0c2;
}
area[landuse=quarry] {
    fill-color: quarry#888888;
}
area[landuse=landfill] {
    fill-color: landfill#663300;
}
area[landuse=basin],
area[landuse=reservoir] {
    fill-color: basin#0000bf;
}
area[landuse=forest] {
    fill-color: forest#b1efc8;
}
area[landuse=allotments] {
    fill-color: allotments#5dbf80;
}
area[landuse=greenhouse_horticulture],
area[landuse=plant_nursery] {
    fill-color: green#b1e0c2;
}
area[landuse=grass] {
    fill-color: grass#97ca96;
}
area[landuse=residential] {
    fill-color: residential#D594FF;
}
area[landuse=garages] {
    fill-color: garages#d6c8aa;
}
area[landuse=farmyard] {
    fill-color: farmyard#f0f0f0;
}
area[landuse=retail],
area[landuse=commercial] {
    fill-color: retail#ffc4ee;
}
area[landuse=industrial] {
    fill-color: industrial#ecd8ff;
}
area[landuse=brownfield] {
    fill-color: brownfield#ecba32;
}
area[landuse=greenfield] {
    fill-color: greenfield#b1ec5c;
}
area[landuse=railway] {
    fill-color: railland#888888;
}
area[landuse=construction] {
    fill-color: construction#ffff00;
}
way[landuse=construction] {
    width: 1;
    color: construction#ffff00;
    dashes: 9,9;
}
area[landuse=military] {
    fill-color: military#b62c2c;
}
area[landuse=religious] {
    fill-color: religious#ffd454;
}
area[landuse=cemetery] {
    fill-color: cemetery#b1efc8;
}
area[landuse=village_green] {
    fill-color: green#b1e0c2;
}
area[landuse=recreation_ground] {
    fill-color: green#b1e0c2;
}
node[landuse] {
    icon-image: "misc/deprecated.png";
    set icon_z17;
    text: auto;
}

/*****************/
/* military tags */
/*****************/

area[military=airfield],
area[military=bunker],
area[military=barracks],
area[military=danger_area],
area[military=range] {
    fill-color: military#b62c2c;
}
node[military=airfield] {
    icon-image: "transport/airport/airfield.png";
    set icon_z17;
    text: auto;
}
node[military=bunker] {
    icon-image: "misc/landmark/bunker.png";
    set icon_z17;
    text: auto;
}
node[military=barracks] {
    icon-image: "misc/no_icon.png";
    set icon_z17;
    text: auto;
}
node[military=danger_area] {
    icon-image: "misc/danger.png";
    set icon_z17;
    text: auto;
}
node[military=range] {
    icon-image: "misc/landmark/range.png";
    set icon_z17;
    text: auto;
}

/*************************/
/* public_transport tags */
/*************************/

node[public_transport=stop_position] {
    icon-image: "transport/railway_small.png";
    set icon_z17;
    text: auto;
}
node[highway=bus_stop] {
    icon-image: "transport/bus_small.png";
    set icon_z17;
    text: auto;
}
node[public_transport=stop_position][bus=yes] {
    icon-image: "transport/bus_small.png";
    set icon_z17;
    text: auto;
}
node[public_transport=stop_position][aerial=yes] {
    icon-image: "transport/aerialway.png";
    set icon_z17;
    text: auto;
}
node[public_transport=stop_position][ferry=yes] {
    icon-image: "transport/ferry.png";
    set icon_z17;
    text: auto;
}
node[public_transport=stop_position][tram=yes] {
    icon-image: "transport/tram.png";
    set icon_z17;
    text: auto;
}
node[public_transport=stop_position][train=yes] {
    icon-image: "transport/railway_small.png";
    set icon_z17;
    text: auto;
}
area[public_transport=platform]:closed {
    fill-color: service#809bc0;
}
way[public_transport=platform]!:closed {
    width: 3;
    color: service#809bc0;
    dashes: 12,3;
}
node[public_transport=platform] {
    icon-image: "transport/bus_small.png";
    set icon_z17;
    text: auto;
}
node[public_transport=platform][bus=yes] {
    icon-image: "transport/bus_small.png";
    set icon_z17;
    text: auto;
}
node[public_transport=platform][aerial=yes] {
    icon-image: "transport/aerialway/station.png";
    set icon_z17;
    text: auto;
}
node[public_transport=platform][ferry=yes] {
    icon-image: "transport/ferry.png";
    set icon_z17;
    text: auto;
}
node[public_transport=platform][tram=yes],
node[public_transport=platform][train=yes] {
    icon-image: "transport/railway_station.png";
    set icon_z17;
    text: auto;
}

/****************/
/* railway tags */
/****************/

area[railway=station],
area[railway=tram_station],
area[railway=subway_entrance] {
    fill-color: railwaypoint#f7efb7;
}
node[railway=station], node[railway=tram_station] {
    icon-image: "transport/railway_station.png";
    set icon_z17;
    text: auto;
}
node[railway=halt] {
    icon-image: "transport/railway_small.png";
    set icon_z17;
    text: auto;
}
node[railway=tram_stop] {
    icon-image: "transport/tram.png";
    set icon_z17;
    text: auto;
}
node[railway=subway_entrance] {
    icon-image: "transport/underground.png";
    set icon_z17;
    text: auto;
}
node[railway=crossing] {
    icon-image: "vehicle/crossing.png";
    set icon_z17;
    text: auto;
}
node[railway=level_crossing] {
    icon-image: "presets/level_crossing.png";
    icon-width: 16;
    set icon_z17;
    text: auto;
}
way[railway=rail] {
    width: 2;
    color: rail#404040;
    dashes: 9,9;
    dashes-background-color: raildashed#ffffff;
}
way[railway=rail][service=siding] {
    width: 1;
}
way[railway=rail][service=yard],
way[railway=rail][service=spur] {
    width: 1;
    color: railyard#552200
}
/* draw tram on top of other way (highway=*) or
   as a standalone style */
way[highway][railway=tram]::core_railway, way[!highway][railway=tram] {
    object-z-index: 1;
    modifier: false; /* don't draw default way if there is no line on default layer */
    width: 1;
    color: railover#202020;
    dashes: 9,9;
    casing-width: 1;
    casing-color: otherrail#808080;
    casing-linecap: round;
    casing-dashes: 9,9;
}
way[railway=light_rail] {
    width: 2;
    color: otherrail#808080;
    dashes: 9,9;
}
way[railway=subway] {
    width: 1;
    color: subway#606060;
    dashes: 9,9;
}
way[railway=preserved] {
    width: 1;
    color: oldrail#404040;
    dashes: 9,9;
}
/* disused often appears together with highway=xy */
/* -> draw on separate layer with higher z-index, but use */
/* modifier: false; to suppress default line when used alone. */
/* use default layer when used without highway=* to display bridge correctly */
way[railway=disused][highway]::core_railway,
way[railway=disused][!highway],
way[railway=abandoned][highway]::core_railway,
way[railway=abandoned][!highway] {
    width: 1;
    modifier: false;
    z-index: 1;
    color: oldrail#404040;
    dashes: 9,9;
}
way[railway=narrow_gauge],
way[railway=monorail] {
    width: 1;
    color: rail#404040;
    dashes: 9,9;
}
area[railway=turntable] {
    fill-color: rail#404040;
}
node[railway=turntable] {
    icon-image: "transport/turntable.png";
    set icon_z17;
    text: auto;
}
node[railway=buffer_stop] {
    icon-image: "transport/buffer_stop.png";
    set icon_z17;
    text: auto;
}
area[railway=platform]:closed {
    fill-color: rail#404040;
}
way[railway=platform] {
    width: 2;
    color: rail#404040;
}
way[railway=funicular] {
    width: 1;
    color: rail#404040;
    dashes: 9,9;
}
node[railway=switch] {
    icon-image: "presets/railway_switch.png";
    icon-width: 16;
    set icon_z17;
    text: auto;
}
node[railway=milestone] {
    icon-image: "vehicle/milestone.svg";
    set icon_z17;
    text: auto;
}
node[railway=rail], node[railway=tram], node[railway=light_rail],
node[railway=subway], node[railway=preserved],
node[railway=disused], node[railway=abandoned],
node[railway=narrow_gauge], node[railway=monorail],
node[railway=platform], node[railway=funicular],
node[service=yard], node[service=siding], node[service=spur] {
    icon-image: "misc/deprecated.png";
    set icon_z17;
    text: auto;
}
way[railway=construction][!highway] {
    width: 1;
    color: construction#ffff00;
    dashes: 9,9;
}
way[railway=construction][construction=rail] {
    width: 2;
    color: rail#404040;
    dashes: 9,9;
    dashes-background-color: construction#ffff00;
}
way[railway=construction][construction=light_rail] {
    width: 2;
}
way[railway=construction][construction=tram][highway]::core_railway,
way[railway=construction][construction=tram][!highway] {
    z-index: 1;
    width: 1;
    color: railover#202020;
    dashes: 9,9;
    casing-width: 1;
    casing-color: construction#ffff00;
    casing-linecap: round;
    casing-dashes: 9,9;
}

/****************/
/* aeroway tags */
/****************/

area[aeroway=aerodrome] {
    fill-color: aeroway#660000;
    width: 2;
    dashes: 9,9;
}
node[aeroway=aerodrome] {
    icon-image: "transport/airport.png";
    set icon_z17;
    text: auto;
}
area[aeroway=terminal] {
    fill-color: terminal#bb0000;
}
node[aeroway=terminal] {
    icon-image: "transport/airport/terminal.png";
    set icon_z17;
    text: auto;
}
area[aeroway=helipad] {
    fill-color: aeroway_dark#330000;
}
node[aeroway=helipad] {
    icon-image: "transport/airport/helipad.png";
    set icon_z17;
    text: auto;
}
area[aeroway=runway]:closed {
    fill-color: aeroway_dark#330000;
}
way[aeroway=runway] {
    width: 3;
    color: aeroway_dark#330000;
}
area[aeroway=taxiway]:closed {
    fill-color: aeroway#660000;
}
way[aeroway=taxiway] {
    width: 2;
    color: aeroway#660000;
}
way[aeroway=parking_position] {
    width: 1;
    color: aeroway#660000;
}
node[aeroway=parking_position] {
    icon-image: "transport/airport/parking_position.png";
    set icon_z17;
    text: auto;
}
area[aeroway=apron],
area[aeroway=hangar] {
    fill-color: aeroway_light#990000;
}
node[aeroway=apron],
node[aeroway=runway],
node[aeroway=taxiway] {
    icon-image: "misc/deprecated.png";
    set icon_z17;
    text: auto;
}
node[aeroway=hangar] {
    icon-image: "transport/airport/hangar.png";
    set icon_z17;
    text: auto;
}
node[aeroway=gate] {
    icon-image: "transport/airport/gate.png";
    set icon_z17;
    text: auto;
}
node[aeroway=windsock] {
    icon-image: "transport/airport/windsock.png";
    set icon_z17;
    text: auto;
}

/******************/
/* aerialway tags */
/******************/

way[aerialway=cable_car],
way[aerialway=gondola] {
    width: 1;
    color: aerialway#663300;
    dashes: 9,9;
}
way[aerialway=chair_lift] {
    width: 1;
    color: aerialway#663300;
    dashes: 6,6;
}
way[aerialway=mixed_lift] {
    width: 1;
    color: aerialway#663300;
    dashes: 6,6,9,6;
}
way[aerialway=j-bar],
way[aerialway=t-bar],
way[aerialway=platter],
way[aerialway=rope_tow],
way[aerialway=drag_lift] {
    width: 1;
    color: aerialway#663300;
    dashes: 3,3;
}
way[aerialway=magic_carpet] {
    width: 1;
    color: aerialway#663300;
    dashes: 3,3;
}
way[aerialway=goods] {
    width: 1;
    color: aerialway#663300;
    dashes: 2,2;
}
area[aerialway=station] {
    fill-color: aerialway#663300;
}
node[aerialway=station] {
    icon-image: "transport/aerialway/station.png";
    set icon_z17;
    text: auto;
}
node[aerialway=pylon] {
    icon-image: "transport/aerialway/pylon.svg";
    set icon_z17;
    text: auto;
}
node[aerialway=cable_car],
node[aerialway=gondola],
node[aerialway=chair_lift],
node[aerialway=mixed_lift],
node[aerialway=drag_lift],
node[aerialway=t-bar],
node[aerialway=j-bar],
node[aerialway=platter],
node[aerialway=magic_carpet],
node[aerialway=rope_tow],
node[aerialway=goods] {
    icon-image: "misc/deprecated.png";
    set icon_z17;
    text: auto;
}

/**************/
/* sport tags */
/**************/

area[sport="9pin"],
area[sport="10pin"],
area[sport=athletics],
area[sport=running],
area[sport=soccer],
area[sport=australian_football],
area[sport=american_football],
area[sport=canadian_football],
area[sport=gaelic_games],
area[sport=rugby_league],
area[sport=rugby_union] {
    fill-color: sport#bde3cb;
}
node[sport="9pin"] {
    icon-image: "sport/10pin.png";
    set icon_z17;
    text: auto;
}
node[sport="10pin"] {
    icon-image: "sport/10pin.png";
    set icon_z17;
    text: auto;
}
node[sport=athletics] {
    icon-image: "sport/athletics.png";
    set icon_z17;
    text: auto;
}
node[sport=running] {
    icon-image: "sport/running.svg";
    set icon_z17;
    text: auto;
}
node[sport=soccer],
node[sport=gaelic_games] {
    icon-image: "sport/soccer.png";
    set icon_z17;
    text: auto;
}
node[sport=australian_football],
node[sport=american_football],
node[sport=canadian_football],
node[sport=rugby_league],
node[sport=rugby_union] {
    icon-image: "sport/football.png";
    set icon_z17;
    text: auto;
}
area[sport=baseball],
area[sport=basketball],
area[sport=boules],
area[sport=bowls],
area[sport=canoe],
area[sport=chess],
area[sport=climbing]:closed,
area[sport=cricket],
area[sport=croquet] {
    fill-color: sport#bde3cb;
}
node[sport=baseball] {
    icon-image: "sport/baseball.png";
    set icon_z17;
    text: auto;
}
node[sport=basketball] {
    icon-image: "sport/basketball.png";
    set icon_z17;
    text: auto;
}
node[sport=boules] {
    icon-image: "sport/boule.png";
    set icon_z17;
    text: auto;
}
node[sport=bowls] {
    icon-image: "sport/boule.png";
    set icon_z17;
    text: auto;
}
node[sport=canoe] {
    icon-image: "sport/canoe.svg";
    set icon_z17;
    text: auto;
}
node[sport=chess] {
    icon-image: "sport/chess.png";
    set icon_z17;
    text: auto;
}
node[sport=climbing] {
    icon-image: "sport/climbing.png";
    set icon_z17;
    text: auto;
}
node[sport=cricket] {
    icon-image: "sport/cricket.png";
    set icon_z17;
    text: auto;
}
node[sport=croquet] {
    icon-image: "sport/croquet.png";
    set icon_z17;
    text: auto;
}
area[sport=cycling],
area[sport=dog_racing],
area[sport=equestrian],
area[sport=golf],
area[sport=gymnastics],
area[sport=field_hockey],
area[sport=ice_hockey],
area[sport=horse_racing],
area[sport=karting][highway!=raceway],
area[sport=karting][highway=raceway][area=yes],
area[sport=motocross][highway!=raceway],
area[sport=motocross][highway=raceway][area=yes],
area[sport=motor][highway!=raceway],
area[sport=motor][highway=raceway][area=yes] {
    fill-color: sport#bde3cb;
}
node[sport=cycling] {
    icon-image: "sport/cycling.png";
    set icon_z17;
    text: auto;
}
node[sport=dog_racing] {
    icon-image: "leisure/dog.png";
    set icon_z17;
    text: auto;
}
node[sport=equestrian] {
    icon-image: "presets/equestrian.png";
    icon-width: 16;
    set icon_z17;
    text: auto;
}
node[sport=golf] {
    icon-image: "sport/golf.svg";
    set icon_z17;
    text: auto;
}
node[sport=gymnastics] {
    icon-image: "presets/gymnastics.png";
    icon-width: 16;
    set icon_z17;
    text: auto;
}
node[sport=field_hockey] {
    icon-image: "sport/field_hockey.png";
    set icon_z17;
    text: auto;
}
node[sport=ice_hockey] {
    icon-image: "sport/ice_hockey.png";
    set icon_z17;
    text: auto;
}
node[sport=horse_racing] {
    icon-image: "sport/riding.png";
    set icon_z17;
    text: auto;
}
node[sport=karting] {
    icon-image: "sport/karting.png";
    set icon_z17;
    text: auto;
}
node[sport=motocross] {
    icon-image: "sport/motocross.png";
    set icon_z17;
    text: auto;
}
node[sport=motor] {
    icon-image: "sport/motor.png";
    set icon_z17;
    text: auto;
}
area[sport=multi],
area[sport=pelota],
area[sport=racquet],
area[sport=skating],
area[sport=skateboard] {
    fill-color: sport#bde3cb;
}
node[sport=multi] {
    icon-image: "sport/multi.png";
    set icon_z17;
    text: auto;
}
node[sport=pelota] {
    icon-image: "sport/pelota.png";
    set icon_z17;
    text: auto;
}
node[sport=racquet] {
    icon-image: "sport/racquetball.png";
    set icon_z17;
    text: auto;
}
node[sport=skating] {
    icon-image: "sport/skating.png";
    set icon_z17;
    text: auto;
}
node[sport=skateboard] {
    icon-image: "sport/skateboard.png";
    set icon_z17;
    text: auto;
}
area[sport=swimming] {
    fill-color: swimming_pool#51c4ef;
}
node[sport=swimming] {
    icon-image: "sport/pool.png";
    set icon_z17;
    text: auto;
}
area[sport=table_tennis],
area[sport=tennis],
area[sport=paintball] {
    fill-color: sport#bde3cb;
}
node[sport=table_tennis] {
    icon-image: "sport/table_tennis.png";
    set icon_z17;
    text: auto;
}
node[sport=tennis] {
    icon-image: "sport/tennis.png";
    set icon_z17;
    text: auto;
}
node[sport=paintball] {
    icon-image: "misc/no_icon.png";
    set icon_z17;
    text: auto;
}
area[sport=squash],
area[sport=shooting],
area[sport=volleyball],
area[sport=beachvolleyball],
area[sport=billiards],
area[sport=bowling],
area[sport=handball],
area[sport=rowing],
area[sport=sailing],
area[sport=scuba_diving],
area[sport=badminton] {
    fill-color: sport#bde3cb;
}
node[sport=squash] {
    icon-image: "misc/no_icon.png";
    set icon_z17;
    text: auto;
}
node[sport=shooting] {
    icon-image: "presets/range.png";
    icon-width: 16;
    set icon_z17;
    text: auto;
}
node[sport=volleyball] {
    icon-image: "sport/volleyball.png";
    set icon_z17;
    text: auto;
}
node[sport=beachvolleyball] {
    icon-image: "sport/beachvolleyball.png";
    set icon_z17;
    text: auto;
}
node[sport=billiards] {
    icon-image: "sport/billiards.svg";
    set icon_z17;
    text: auto;
}
node[sport=bowling] {
    icon-image: "sport/10pin.png";
    set icon_z17;
    text: auto;
}
node[sport=handball] {
    icon-image: "sport/handball.png";
    set icon_z17;
    text: auto;
}
node[sport=rowing] {
    icon-image: "sport/rowing.png";
    set icon_z17;
    text: auto;
}
node[sport=sailing] {
    icon-image: "misc/no_icon.png";
    set icon_z17;
    text: auto;
}
node[sport=scuba_diving] {
    icon-image: "sport/scuba_diving.svg";
    set icon_z17;
    text: auto;
}
node[sport=badminton] {
    icon-image: "misc/no_icon.png";
    set icon_z17;
    text: auto;
}
area[sport=archery],
area[sport=fishing],
area[sport=model_aerodrome],
area[sport=rc_car] {
    fill-color: sport#bde3cb;
}
node[sport=archery] {
    icon-image: "sport/archery.png";
    set icon_z17;
    text: auto;
}
node[sport=fishing] {
    icon-image: "sport/fishing.png";
    set icon_z17;
    text: auto;
}
node[sport=model_aerodrome] {
    icon-image: "transport/airport.png";
    set icon_z17;
    text: auto;
}
node[sport=rc_car] {
    icon-image: "transport/car.png";
    set icon_z17;
    text: auto;
}

/****************/
/* natural tags */
/****************/

area[natural=spring] {
    fill-color: light_water#00005f;
}
node[natural=spring] {
    icon-image: "misc/landmark/spring.png";
    set icon_z17;
    text: auto;
}
node[natural=saddle] {
    icon-image: "presets/saddle.svg";
    set icon_z0;
    text: auto;
    set text_z0;
}
node[natural=peak] {
    icon-image: "presets/peak.svg";
    set icon_z0;
    text: auto;
    set text_z0;
}
node[natural=peak][tourism=viewpoint] {
    icon-image: "sightseeing/peak_viewpoint.svg";
    set icon_z0;
    text: auto;
    set text_z0;
}
area[natural=glacier] {
    fill-color: glacier#ffffff;
}
node[natural=glacier] {
    icon-image: "misc/landmark/glacier_small.png";
    set icon_z0;
    text: auto;
    set text_z0;
}
node[natural=volcano] {
    icon-image: "misc/landmark/volcano_small.png";
    set icon_z0;
    text: auto;
    set text_z0;
}
area[natural=cliff]:closed {
    fill-color: natural#002f00;
}
way[natural=cliff] {
    repeat-image: "misc/cliff-pattern.png";
    repeat-image-align: top;
    width: 1;
    color: #b2b2b2;
}
node[natural=cliff] {
    icon-image: "misc/cliff.png";
    set icon_z17;
    text: auto;
}
way[natural=ridge] {
    width: 1;
    color: natural#002f00;
}
way[natural=valley] {
    width: 1;
    color: natural#002f00;
}
area[natural=scree] {
    fill-color: natural#002f00;
}
area[natural=scrub] {
    fill-color: scrub#007000;
}
area[natural=fell] {
    fill-color: natural#002f00;
}
area[natural=heath] {
    fill-color: heath#ffffc0;
}
way[natural=tree_row] {
    width: 2;
    color: woodarea#008000;
}
area[natural=wood] {
    fill-color: woodarea#008000;
}
area[natural=grassland] {
    fill-color: green#b1e0c2;
}
area[natural=wetland] {
    fill-color: marsh#4f4ff3;
}
area[natural=water] {
    fill-color: water#0000ff;
}
way[natural=coastline] {
    width: 2;
    color: water#0000ff;
    right-casing-color: water#0000ff;
    right-casing-width: 5;
    right-casing-opacity: 0.30; 
}
area[natural=mud] {
    fill-color: mud#cba762;
}
area[natural=beach] {
    fill-color: beach#f8dba2;
}
area[natural=sand] {
    fill-color: sand#f8dba2;
}
area[natural=bare_rock] {
    fill-color: bare_rock#f8f8c7;
}
area[natural=rock] {
    fill-color: stone#f8f8c7;
}
node[natural=rock] {
    icon-image: "misc/rock.svg";
    set icon_z17;
    text: auto;
}
area[natural=stone] {
    fill-color: stone#f8f8c7;
}
node[natural=stone] {
    icon-image: "misc/stone.svg";
    set icon_z17;
    text: auto;
}
area[natural=bay],
area[natural=cave_entrance] {
    fill-color: natural#002f00;
}
node[natural=bay] {
    icon-image: "misc/bay.png";
    set icon_z17;
    text: auto;
}
node[natural=cave_entrance] {
    icon-image: "misc/landmark/cave_entrance.png";
    set icon_z17;
    text: auto;
}
node[natural=tree] {
    icon-image: "misc/landmark/trees.png";
    set icon_z17;
    text: auto;
}
node[natural=tree][type=conifer],
node[natural=tree][leaf_type=needleleaved] {
    icon-image: "misc/landmark/trees_conifer.png";
    set icon_z17;
    text: auto;
}
node[natural=tree][type=broad_leaved],
node[natural=tree][leaf_type=broadleaved] {
    icon-image: "misc/landmark/trees_broad_leaved.png";
    set icon_z17;
    text: auto;
}
node[natural=tree][type=palm] {
    icon-image: "misc/landmark/trees_palm.png";
    set icon_z17;
    text: auto;
}
node[natural=scree],
node[natural=scrub],
node[natural=fell],
node[natural=heath],
node[natural=tree_row],
node[natural=wood],
node[natural=grassland],
node[natural=wetland],
node[natural=water],
node[natural=coastline],
node[natural=mud],
node[natural=beach],
node[natural=sand],
node[natural=land],
node[natural=bare_rock],
node[natural=ridge],
node[natural=valley] {
    icon-image: "misc/deprecated.png";
    set icon_z17;
    text: auto;
}
/*****************/
/* waterway tags */
/*****************/

way[waterway=river] {
    width: 2;
    color: water#0000ff;
}
area[waterway=riverbank] {
    fill-color: riverbank#0000cf;
    width: 1;
    color: riverbank#0000cf;
}
way[waterway=canal] {
    width: 2;
    color: water#0000ff;
}
way[waterway=stream] {
    width: 1;
    color: stream#6600cc;
}
way[waterway=ditch], way[waterway=drain] {
    width: 1;
    color: water#0000ff;
}
area[waterway=dock] {
    fill-color: dock#0000cf;
}
node[waterway=dock] {
    icon-image: "nautical/boatyard.png";
    set icon_z17;
    text: auto;
}
node[waterway=lock_gate] {
    icon-image: "nautical/lock_gate.png";
    set icon_z17;
    text: auto;
}
node[waterway=turning_point] {
    icon-image: "nautical/turning.png";
    set icon_z17;
    text: auto;
}
area[waterway=boatyard] {
    fill-color: manmade#d8d8d8;
}
node[waterway=boatyard] {
    icon-image: "nautical/boatyard.png";
    set icon_z17;
    text: auto;
}
node[waterway=water_point],
node[waterway=waste_disposal],
node[waterway=mooring] {
    icon-image: "misc/deprecated.png";
    set icon_z17;
    text: auto;
}
node[mooring] {
    icon-image: "nautical/marina.png";
    set icon_z17;
    text: auto;
}
area[waterway=fuel] {
    fill-color: amenity_traffic#f7efb7;
}
node[waterway=fuel] {
    icon-image: "nautical/marine_fuel.png";
    icon-width: 16;
    set icon_z17;
    text: auto;
}
way[waterway=weir] {
    width: 2;
    color: manmade#d8d8d8;
}
node[waterway=weir] {
    icon-image: "nautical/weir.png";
    set icon_z17;
    text: auto;
}
area[waterway=dam]:closed {
    fill-color: manmade#d8d8d8;
}
way[waterway=dam] {
    width: 2;
    color: manmade#d8d8d8;
}
node[waterway=dam] {
    icon-image: "nautical/dam.png";
    set icon_z17;
    text: auto;
}
/* it's not possible to have both line and area, line seems more likely */
way[waterway=waterfall] {
    width: 2;
    color: manmade#d8d8d8;
}
node[waterway=waterfall] {
    icon-image: "nautical/waterfall.png";
    set icon_z17;
    text: auto;
}
node[waterway=river], node[waterway=riverbank],
node[waterway=canal], node[waterway=wadi],
node[waterway=stream],
node[waterway=ditch], node[waterway=drain] {
    icon-image: "misc/deprecated.png";
    set icon_z17;
    text: auto;
}

/**************/
/* route tags */
/**************/

way[route=ferry] {
    width: 1;
    color: ferry#809bc0;
    dashes: 9,9;
}
node[route=bus],
node[route=ferry],
node[route=flight],
node[route=ncn],
node[route=subsea],
node[route=ski],
node[route=tour],
node[route=pub_crawl] {
    icon-image: "misc/deprecated.png";
    set icon_z17;
    text: auto;
}

/*******************/
/* properties tags */
/*******************/

node[mountain_pass?] {
    icon-image: "misc/landmark/mountain_pass.png";
    set icon_z0;
    text: auto;
    set text_z0;
}

/*****************/
/* boundary tags */
/*****************/

way[boundary=protected_area]::core_boundary,
way[boundary=administrative]::core_boundary,
way[boundary=postal_code]::core_boundary,
way[boundary=political]::core_boundary,
way[boundary=maritime]::core_boundary,
way[boundary=national_park]::core_boundary {
    z-index: 2;
    modifier: false;
    width: 1;
    color: boundary#FF6600;
    dashes: 9,9;
}
way[admin_level=9]::core_boundary,
relation[admin_level=9] > way::core_boundary,
way[admin_level=10]::core_boundary,
relation[admin_level=10] > way::core_boundary {
    z-index: 2;
    modifier: false;
    width: 1;
    color: boundary#FF6600;
    dashes: 9,9;
}
way[admin_level=7]::core_boundary,
relation[admin_level=7] > way::core_boundary,
way[admin_level=8]::core_boundary,
relation[admin_level=8] > way::core_boundary {
    z-index: 2;
    modifier: false;
    width: 2;
    color: boundary#FF6600;
    dashes: 9,9;
}
way[admin_level=5]::core_boundary,
relation[admin_level=5] > way::core_boundary,
way[admin_level=6]::core_boundary,
relation[admin_level=6] > way::core_boundary {
    z-index: 2;
    modifier: false;
    width: 3;
    color: boundary#FF6600;
    dashes: 9,9;
}
way[admin_level=3]::core_boundary,
relation[admin_level=3] > way::core_boundary,
way[admin_level=4]::core_boundary,
relation[admin_level=4] > way::core_boundary {
    z-index: 2;
    modifier: false;
    width: 4;
    color: boundary#FF6600;
    dashes: 9,9;
}
way[admin_level=1]::core_boundary,
relation[admin_level=1] > way::core_boundary,
way[admin_level=2]::core_boundary,
relation[admin_level=2] > way::core_boundary {
    z-index: 2;
    modifier: false;
    width: 5;
    color: boundary#FF6600;
    dashes: 9,9;
}
node[boundary=national],
node[boundary=administrative],
node[boundary=postal_code],
node[boundary=political],
node[boundary=national_park] {
    icon-image: "misc/deprecated.png";
    set icon_z17;
    text: auto;
}

/******************/
/* maxspeed nodes */
/******************/
node[traffic_sign][maxspeed=none][!is_prop_set(icon-image)] {
    icon-image: "vehicle/restriction/maxspeed_none.svg";
    set icon_z17;
}
node[traffic_sign][maxspeed=~/^[0-9]+$/][!is_prop_set(icon-image)] {
    maxspeedprop: tag(maxspeed);
    set maxspeedclass;
}
node[traffic_sign][maxspeed=signals][!is_prop_set(icon-image)] {
    maxspeedprop: " ?";
    set maxspeedclass;
}
node[traffic_sign][maxspeed=~/^[0-9]+ mph/][!is_prop_set(icon-image)] {
    maxspeedprop: get(split(" mph",tag(maxspeed)),0);
    set maxspeedclass;
}
node[traffic_sign][maxspeed=~/[0-9]+ km\/h/][!is_prop_set(icon-image)] {
    maxspeedprop: get(split(" km/h",tag(maxspeed)),0);
    set maxspeedclass;
}
node[traffic_sign][maxspeed=~/[0-9]+ knots/][!is_prop_set(icon-image)] {
    maxspeedprop: get(split(" knots",tag(maxspeed)),0);
    set maxspeedclass;
}
node[prop(maxspeedclass, default)][!is_prop_set(icon-image, default)]::core_maxnodebg {
    /* background (white) */
    symbol-shape: circle;
    symbol-size: 17;
    symbol-fill-color: white;
    major-z-index: 4.2;
}
node[traffic_sign][maxspeed]["maxspeed:variable"]["maxspeed:variable"!="no"]::core_maxnodebg,
node[traffic_sign][maxspeed=signals]::core_maxnodebg {
    /* background (black) */
    symbol-fill-color: black;
}
node[prop(maxspeedclass, default)]::core_maxnodefg {
    /* foreground (black text and red circle) */
    symbol-shape: circle;
    symbol-size: 15;
    symbol-stroke-color: crimson;
    symbol-stroke-width: 2;
    text: prop(maxspeedprop, default);
    font-size: 8;
    font-weight: bold;
    text-color: black;
    text-anchor-horizontal: center;
    text-anchor-vertical: center;
    text-offset-x: 0;
    text-offset-y: -1;
    major-z-index: 4.2;
}
node[traffic_sign][maxspeed]["maxspeed:variable"]["maxspeed:variable"!="no"]::core_maxnodefg,
node[traffic_sign][maxspeed=signals]::core_maxnodefg {
    /* foreground (white text) */
    text-color: white;
}
node|z-16[prop(maxspeedclass, default)][setting("hide_icons")]::core_maxnodebg {
    symbol-shape: none;
}
node|z-16[prop(maxspeedclass, default)][setting("hide_icons")]::core_maxnodefg {
    text: none;
    symbol-shape: none;
}

/**************/
/* place tags */
/**************/

/* lot's of "openGeoDB:..." tags can be found in germany */
node["openGeoDB:type"=Stadt],
node["openGeoDB:type"=Kreis],
node["openGeoDB:type"=Gemeinde],
node["openGeoDB:type"=Ort],
node["openGeoDB:type"=District],
node["openGeoDB:location"=locality] {
    icon-image: "place/settlement/openGeoDB.png";
    set icon_z0;
    text: auto;
    set text_z0;
    font-size: 20;
    font-weight: bold;
    text-color:black;
    text-halo-color: white;
    text-halo-radius: 1.2;
}
area[place=continent],
area[place=country],
area[place=state],
area[place=region],
area[place=county],
area[place=city],
area[place=town],
area[place=village],
area[place=hamlet],
area[place=farm],
area[place=isolated_dwelling],
area[place=neighbourhood],
area[place=suburb],
area[place=locality],
area[place=island],
area[place=plot],
area[place=city_block],
area[place=islet] {
    fill-color: place#8de3cb;
}
node[place=continent],
node[place=country],
node[place=state],
node[place=region],
node[place=county] {
    icon-image: "place/settlement/capital.png";
    set icon_z0;
    text: auto;
    set text_z0;
    font-size: 20;
    font-weight: bold;
    text-color: black;
    text-halo-color: white;
    text-halo-radius: 1.9;
    z-index: 2.9;
}
node[place=city] {
    icon-image: "place/settlement/city.png";
    set icon_z0;
    text: auto;
    set text_z0;
    font-size: 20;
    font-weight: bold;
    text-color: black;
    text-halo-color: white;
    text-halo-radius: 1.9;
    z-index: 2.8;
}
node[place=town] {
    icon-image: "place/settlement/town.png";
    set icon_z0;
    text: auto;
    set text_z0;
    font-size: 20;
    font-weight: bold;
    text-color: black;
    text-halo-color: white;
    text-halo-radius: 1.9;
    z-index: 2.7;
}
node[place=suburb] {
    icon-image: "place/settlement/suburb.png";
    set icon_z0;
    text: auto;
    set text_z0;
    font-size: 17;
    font-weight: bold;
    text-color: black;
    text-halo-color: white;
    text-halo-radius: 1.9;
    z-index: 2.6;
}
node[place=village] {
    icon-image: "place/settlement/village.png";
    set icon_z0;
    text: auto;
    set text_z0;
    font-size: 17;
    font-weight: bold;
    text-color: black;
    text-halo-color: white;
    text-halo-radius: 1.9;
    z-index: 2.5;
}
node[place=neighbourhood] {
    icon-image: "place/settlement/neighbourhood.png";
    set icon_z0;
    text: auto;
    set text_z0;
    font-size: 15;
    font-weight: bold;
    text-color: black;
    text-halo-color: white;
    text-halo-radius: 1.9;
    z-index: 2.4;
}
node[place=quarter] {
    icon-image: "place/settlement/neighbourhood.png";
    set icon_z0;
    text: auto;
    set text_z0;
    font-size: 15;
    font-weight: bold;
    text-color: black;
    text-halo-color: white;
    text-halo-radius: 1.9;
    z-index: 2.4;
}
node[place=hamlet] {
    icon-image: "place/settlement/hamlet.png";
    set icon_z0;
    text: auto;
    set text_z0;
    font-size: 15;
    font-weight: bold;
    text-color: black;
    text-halo-color: white;
    text-halo-radius: 1.9;
    z-index: 2.3;
}
node[place=isolated_dwelling] {
    icon-image: "place/settlement/isolated_dwelling.png";
    set icon_z0;
    text: auto;
    set text_z0;
    font-size: 13;
    font-weight: bold;
    text-color: black;
    text-halo-color: white;
    text-halo-radius: 1.9;
    z-index: 2.2;
}
node[place=farm] {
    icon-image: "place/settlement/farm.png";
    set icon_z0;
    text: auto;
    set text_z0;
    font-size: 10;
    font-weight: bold;
    text-color: black;
    text-halo-color: white;
    text-halo-radius: 1.9;
    z-index: 2.1;
}
node[place=locality] {
    icon-image: "place/locality.png";
    set icon_z0;
    text: auto;
    set text_z0;
    font-size: 17;
    font-weight: bold;
    text-color: black;
    text-halo-color: white;
    text-halo-radius: 1.9;
}
node[place=island] {
    icon-image: "place/island.png";
    set icon_z0;
    text: auto;
    set text_z0;
    font-size: 20;
    font-weight: bold;
    text-color: black;
    text-halo-color: white;
    text-halo-radius: 1.9;
}

node[place=islet] {
    icon-image: "place/islet.png";
    set icon_z0;
    text: auto;
    set text_z0;
    font-size: 20;
    font-weight: bold;
    text-color: black;
    text-halo-color: white;
    text-halo-radius: 1.9;
}
node[place=plot] {
    set icon_z0;
    text: auto;
    set text_z0;
    font-size: 10;
    font-weight: bold;
    text-color: black;
    text-halo-color: white;
    text-halo-radius: 1.9;
}
node[place=city_block] {
    set icon_z0;
    text: auto;
    set text_z0;
    font-size: 10;
    font-weight: bold;
    text-color: black;
    text-halo-color: white;
    text-halo-radius: 1.9;
}
/***************************/
/* "work in progress" tags */
/***************************/

node|z16-[fixme]::core_fixme,
node|z-15[fixme][!setting("hide_icons")]::core_fixme,
node|z16-[FIXME]::core_fixme,
node|z-15[FIXME][!setting("hide_icons")]::core_fixme {
    object-z-index: 20;
    icon-image: "misc/fixme-annotation.png";
}
node|z16-[note]::core_note,
node|z-15[note][!setting("hide_icons")]::core_note {
    object-z-index: 10;
    icon-image: "misc/note-annotation.png";
}

/* special display of unreviewed tiger data (USA) 
way["tiger:reviewed"=no]::core_tiger {
    major-z-index: -10;
    width: 11;
    color: tiger_data#808000;
    opacity: 0.6;
} */

/****************************************/
/* zoom levels and general node display */
/****************************************/

/*
Summary of different zoom levels:
  (any zoom)    place=* and a few natural icons with their text is shown
  |z-15         untagged way nodes are hidden completely
  |z16-         fixme=* and note=* symbols
  |z17-         normal POI icons (without text),
                street name along highway=* ways
  |z18-         text for normal POI icons is shown
  
 * text size and node size is adapted according to zoom level (see style source below)
 * maxspeed icons should not be distinguishable from POIs with "icon-image" property

*/

node {
    text: auto;
}
node|z-16[setting("hide_icons")],
node|z17-[!is_prop_set("icon-image")][setting("hide_icons")]!.maxspeedclass,
node[!is_prop_set("icon-image")][!setting("hide_icons")]!.maxspeedclass {
    symbol-size: 2;
    symbol-shape: square;
    symbol-stroke-color: node_standard#ffff00;
    major-z-index: 4.95; /* put node squares above line text */
}
way > node|z-15[setting("shrink_nodes")]!:tagged {
    symbol-shape: none;
}
node:connection {
    symbol-stroke-color: node_connection#ffff00;
}
node:tagged {
    symbol-stroke-color: none;
    symbol-fill-color: node_tagged#00ffff;
}

way > node|z16[setting("shrink_nodes")]!:tagged { symbol-size: 1; }

node|z17[setting("shrink_nodes")]               { symbol-size: 4; }
way > node|z17[setting("shrink_nodes")]         { symbol-size: 2; }
node|z17[setting("shrink_nodes")]:connection    { symbol-size: 4; }

node|z18[setting("shrink_nodes")]               { symbol-size: 4; }
way > node|z18[setting("shrink_nodes")]         { symbol-size: 3; }
node|z18[setting("shrink_nodes")]:connection    { symbol-size: 5; }

node|z19-[setting("shrink_nodes")]              { symbol-size: 4; }
way > node|z19-[setting("shrink_nodes")]        { symbol-size: 4; }
node|z19-[setting("shrink_nodes")]:connection   { symbol-size: 6; }

node[!setting("shrink_nodes")]                  { symbol-size: 4; }
way > node[!setting("shrink_nodes")]            { symbol-size: 4; }
node[!setting("shrink_nodes")]:connection       { symbol-size: 6; }

node|z-16[setting("hide_icons")].icon_z17!.icon_z0,
relation|z-16[type=restriction][setting("hide_icons")] {
    icon-image: none;
}
node|z-17[setting("hide_icons")]!.text_z0 {
    text: none;
}

node|z19,area|z19   { font-size: 9; }
node|z20-,area|z20-   { font-size: 10; }

/* Snake Road Nodes */

node:connection[setting("snakeroads")] {
  symbol-size:9;
  symbol-shape: circle;
  symbol-stroke-color: #00ffff;
  symbol-fill-color: white;
}





/* possible change later

way[highway] > node|z20- [setting("visible_nodes")] {
  symbol-size:12;
  symbol-shape: circle;
  symbol-stroke-color: #00ffff;
  symbol-fill-color: #FF60BA;
  
  
}


*/


/*******************/
/* way text labels */
/*******************/

    
    way|z15-[highway^=motorway][setting("highway_labels")], 
    way|z15-[highway^=trunk][setting("highway_labels")]
{
    text: auto;
    text-color: white;
    font-size: 12;
    font-weight: bold;
    text-position: line;
    text-halo-opacity: 1;
    text-halo-radius: 2.5;
    tect-halo-color: black;
}


    way|z16[highway^=motorway][setting("highway_labels")], way|z16[highway^=trunk][setting("highway_labels")]
    {
        font-size: 14;
    }
    way|z17[highway^=motorway][setting("highway_labels")], way|z17[highway^=trunk][setting("highway_labels")]
    {
        font-size: 14;
    }
    way|z18[highway^=motorway][setting("highway_labels")], way|z18[highway^=trunk][setting("highway_labels")]
    {
        font-size: 18;
    }
    way|z19[highway^=motorway][setting("highway_labels")], way|z19[highway^=trunk][setting("highway_labels")]
    {
        font-size: 20;
    }
    way|z20-[highway^=motorway][setting("highway_labels")], way|z20-[highway^=trunk][setting("highway_labels")]
    {
        font-size: 22;
    }


/**********/

    way|z15-[highway^=primary][setting("highway_labels")], 
    way|z15-[highway^=secondary][setting("highway_labels")], 
    way|z15-[highway^=tertiary][setting("highway_labels")]
{
    text: auto;
    text-color: white;
    font-size: 12;
    font-weight: bold;
    text-position: line;
    text-halo-opacity: 1;
    text-halo-radius: 2.2;
    tect-halo-color: black;
}


    way|z16[highway^=primary][setting("highway_labels")], 
    way|z16[highway^=secondary][setting("highway_labels")], 
    way|z16[highway^=tertiary][setting("highway_labels")]
    {
        font-size: 12;
    }
    way|z17[highway^=primary][setting("highway_labels")], 
    way|z17[highway^=secondary][setting("highway_labels")], 
    way|z17[highway^=tertiary][setting("highway_labels")]
    {
        font-size: 13;
    }
    way|z18[highway^=primary][setting("highway_labels")], 
    way|z18[highway^=secondary][setting("highway_labels")], 
    way|z18[highway^=tertiary][setting("highway_labels")]
    {
        font-size: 16;
    }
    way|z19[highway^=primary][setting("highway_labels")], 
    way|z19[highway^=secondary][setting("highway_labels")], 
    way|z19[highway^=tertiary][setting("highway_labels")]
    {
        font-size: 16;
    }
    way|z20[highway^=primary][setting("highway_labels")], 
    way|z20[highway^=secondary][setting("highway_labels")], 
    way|z20[highway^=tertiary][setting("highway_labels")]
    {
        font-size: 18;
    }
    way|z21-[highway^=primary][setting("highway_labels")], 
    way|z21-[highway^=secondary][setting("highway_labels")], 
    way|z21-[highway^=tertiary][setting("highway_labels")]
    {
        font-size: 18;
    }


/**********/

way|z16-[highway=unclassified][setting("highway_labels")],
way|z16-[highway=residential][setting("highway_labels")],
way|z16-[highway=living_street][setting("highway_labels")],
way|z16-[highway=pedestrian][!area?][setting("highway_labels")],
way|z16-[highway=service][setting("highway_labels")],
way|z16-[highway=track][setting("highway_labels")],
way|z16-[highway=footway][setting("highway_labels")],
way|z16-[highway=path][setting("highway_labels")],
way|z16-[highway=road][setting("highway_labels")] 
{
    text: auto;
    text-color: white;
    font-size: 13;
    font-weight: bold;
    text-position: line;
    text-halo-opacity: 1;
    text-halo-radius: 2.2;
    tect-halo-color: black;
}


way|z16[highway=unclassified][setting("highway_labels")],
way|z16[highway=residential][setting("highway_labels")],
way|z16[highway=living_street][setting("highway_labels")],
way|z16[highway=pedestrian][!area?][setting("highway_labels")],
way|z16[highway=service][setting("highway_labels")],
way|z16[highway=track][setting("highway_labels")],
way|z16[highway=footway][setting("highway_labels")],
way|z16[highway=path][setting("highway_labels")],
way|z16[highway=road][setting("highway_labels")]
{
    font-size: 12;
}
way|z17[highway=unclassified][setting("highway_labels")],
way|z17[highway=residential][setting("highway_labels")],
way|z17[highway=living_street][setting("highway_labels")],
way|z17[highway=pedestrian][!area?][setting("highway_labels")],
way|z17[highway=service][setting("highway_labels")],
way|z17[highway=track][setting("highway_labels")],
way|z17[highway=footway][setting("highway_labels")],
way|z17[highway=path][setting("highway_labels")],
way|z17[highway=road][setting("highway_labels")]
{
    font-size: 13;
}
way|z18[highway=unclassified][setting("highway_labels")],
way|z18[highway=residential][setting("highway_labels")],
way|z18[highway=living_street][setting("highway_labels")],
way|z18[highway=pedestrian][!area?][setting("highway_labels")],
way|z18[highway=service][setting("highway_labels")],
way|z18[highway=track][setting("highway_labels")],
way|z18[highway=footway][setting("highway_labels")],
way|z18[highway=path][setting("highway_labels")],
way|z18[highway=road][setting("highway_labels")]
{
    font-size: 15;
}
way|z19[highway=unclassified][setting("highway_labels")],
way|z19[highway=residential][setting("highway_labels")],
way|z19[highway=living_street][setting("highway_labels")],
way|z19[highway=pedestrian][!area?][setting("highway_labels")],
way|z19[highway=service][setting("highway_labels")],
way|z19[highway=track][setting("highway_labels")],
way|z19[highway=footway][setting("highway_labels")],
way|z19[highway=path][setting("highway_labels")],
way|z19[highway=road][setting("highway_labels")]
{
    font-size: 16;
}
way|z20[highway=unclassified][setting("highway_labels")],
way|z20[highway=residential][setting("highway_labels")],
way|z20[highway=living_street][setting("highway_labels")],
way|z20[highway=pedestrian][!area?][setting("highway_labels")],
way|z20[highway=service][setting("highway_labels")],
way|z20[highway=track][setting("highway_labels")],
way|z20[highway=footway][setting("highway_labels")],
way|z20[highway=path][setting("highway_labels")],
way|z20[highway=road][setting("highway_labels")]
{
    font-size: 18;
}
way|z21-[highway=unclassified][setting("highway_labels")],
way|z21-[highway=residential][setting("highway_labels")],
way|z21-[highway=living_street][setting("highway_labels")],
way|z21-[highway=pedestrian][!area?][setting("highway_labels")],
way|z21-[highway=service][setting("highway_labels")],
way|z21-[highway=track][setting("highway_labels")],
way|z21-[highway=footway][setting("highway_labels")],
way|z21-[highway=path][setting("highway_labels")],
way|z21-[highway=road][setting("highway_labels")]
{
    font-size: 18;
}




/*
way|z16-[highway^=motorway][setting("highway_labels")],
way|z16-[highway^=trunk][setting("highway_labels")],
way|z16-[highway^=primary][setting("highway_labels")],
way|z16-[highway^=secondary][setting("highway_labels")],
way|z16-[highway^=tertiary][setting("highway_labels")],
way|z16-[highway=unclassified][setting("highway_labels")],
way|z16-[highway=residential][setting("highway_labels")],
way|z16-[highway=living_street][setting("highway_labels")],
way|z16-[highway=pedestrian][!area?][setting("highway_labels")],
way|z16-[highway=service][setting("highway_labels")],
way|z16-[highway=track][setting("highway_labels")] {
    text: auto;
    text-color: white;
    font-size: 8;
    text-position: line;
    text-halo-opacity: 1;
    text-halo-radius: 2.5;
    tect-halo-color: black;
    
}


way|z16[highway][setting("highway_labels")] {
    font-size: 8;
}
way|z17[highway][setting("highway_labels")] {
    font-size: 12;
}
way|z18[highway][setting("highway_labels")] {
    font-size: 18;
}
way|z19[highway][setting("highway_labels")] {
    font-size: 16;
}
way|z20[highway][setting("highway_labels")] {
    font-size: 18;
}
way|z21-[highway][setting("highway_labels")] {
    font-size: 18;
}



/*


way|z17-[highway^=motorway][setting("highway_labels")] {
    text-halo-color: motorway#000000;
}
way|z17-[highway^=trunk][setting("highway_labels")] {
    text-halo-color: trunk#000000;
}
way|z17-[highway^=primary][setting("highway_labels")] {
    text-halo-color: primary#000000;
}
way|z17-[highway^=secondary][setting("highway_labels")] {
    text-halo-color: secondary#000000;
}
way|z17-[highway^=tertiary][setting("highway_labels")] {
    text-halo-color: tertiary#000000;
}
way|z17-[highway=unclassified][setting("highway_labels")],
way|z17-[highway=residential][setting("highway_labels")],
way|z17-[highway=living_street][setting("highway_labels")] {
    text-halo-color: street#000000;
}
way[highway=pedestrian][!area?][setting("highway_labels")] {
    text-halo-color: foot#000000;
}
way|z17-[highway=service][setting("highway_labels")] {
    text-halo-color: service#000000;
}
way|z17-[highway=track][setting("highway_labels")] {
    text-halo-color: highway_track#000000;
}
*/

/*********Missing value checks*************/
/************Missing value checks************/

way["layer"=~/^(-9|-8|-7|-6|-5)$/]::layer {
    set layer;

}
way["layer"="-4"]::layer {
    set layer;

}
way["layer"="-3"]::layer {
    set layer;

}
way["layer"="-2"]::layer {
    set layer;

}
way["layer"="-1"]::layer {
    set layer;

}
way["layer"="0"]::layer {
    set layer;

}
way["layer"="1"]::layer {
    set layer;

}
way["layer"="2"]::layer {
    set layer;

}
way["layer"="3"]::layer {
    set layer;

}
way["layer"="4"]::layer {
    set layer;

}
way["layer"=~/^(9|8|7|6|5)$/]::layer {
    set layer;

}




/****************************************************/

 /*CHECKS ADD*/
/* Missing and Incorrect Layers on Bridges - Tunnels */

way[bridge=yes][!layer],
way[bridge=yes]["layer"=~/^(-9|-8|-7|-6|-5|-4|-3|-2|-1)$/],
way[bridge=aqueduct]["layer"=~/^(-9|-8|-7|-6|-5|-4|-3|-2|-1)$/],
way[bridge=cantilever]["layer"=~/^(-9|-8|-7|-6|-5|-4|-3|-2|-1)$/],
way[bridge=covered]["layer"=~/^(-9|-8|-7|-6|-5|-4|-3|-2|-1)$/],
way[bridge=low_water_crossing]["layer"=~/^(-9|-8|-7|-6|-5|-4|-3|-2|-1)$/],
way[bridge=trestle]["layer"=~/^(-9|-8|-7|-6|-5|-4|-3|-2|-1)$/],
way[bridge=viaduct]["layer"=~/^(-9|-8|-7|-6|-5|-4|-3|-2|-1)$/],
way[bridge=movable]["layer"=~/^(-9|-8|-7|-6|-5|-4|-3|-2|-1)$/],
way[embankment=yes]["layer"=~/^(-9|-8|-7|-6|-5|-4|-3|-2|-1)$/], 
way[bridge=aqueduct][!layer],
way[bridge=cantilever][!layer],
way[bridge=covered][!layer],
way[bridge=low_water_crossing][!layer],
way[bridge=trestle][!layer],
way[bridge=viaduct][!layer],
way[bridge=movable][!layer],
way[tunnel=yes][!layer],
way[tunnel=yes]["layer"=~/^(9|8|7|6|5|4|3|2|1)$/], 
way[tunnel=culvert][!layer],
way[tunnel=building_passage][!layer],
way[tunnel=avalanche_protector][!layer]

 {
    
    set .missl;
}

way.missl

{
    
    color: yellow;
    dashes-background-color: red;
    dashes: 4,24;
    opacity: 1;
    width: 16;
    text: tr("!Missing Layer - or - Wrong Value!");
    text-color: white;
    font-size: 30;
    text-halo-color: red;
    text-halo-radius: 1;
    casing-width: 1;
    casing-color: yellow;
}



/***********************************************/

/* report wrong value of layer */
way!.layer[layer]::layer {
    color: orange;
    dashes-background-color: red;
    dashes: 4,9;
    opacity: 1;
    width: 16;
    text: tr("Incorrect value");
    text-color: black;
    font-size: 31;
    text-halo-color: red;
    text-halo-radius: 2;
    casing-width: 1;
    casing-color: yellow;
}







/* Visible Nodes Style */

node:connection[setting("visible_nodes")] {
  symbol-size: 9;
  symbol-shape: circle;
  symbol-stroke-color: #00ffff;
  symbol-fill-color: black;
}



/* Block Buildings */

/* Setting BB */







/* Buildings */
area[building][setting("block_buildings")] {
    crc:  CRC32_checksum(eval(osm_id()))/429496.7296;
    /*text: eval(osm_id());*/
}

/* 33 different special selected colors */
area[building][prop(crc)<303]
{
        fill-color: #8B864E;
        text-halo-color: #8B864E;
        casing-width: 3;
        casing-color: black;

}
                /* --------- */
area[building][prop(crc)>=303][prop(crc)<606]
{
        fill-color: #b88142;
        text-halo-color: #b88142;
        casing-width: 3;
        casing-color: black;

}
                /* --------- */
area[building][prop(crc)>=606][prop(crc)<909]
{
        fill-color: #a3fe8f;
        text-halo-color: #a3fe8f;
        casing-width: 3;
        casing-color: black;

}
                /* --------- */
area[building][prop(crc)>=909][prop(crc)<1212]
{
        fill-color: #b8674c;
        text-halo-color: #b8674c;
        casing-width: 3;
        casing-color: black;

}
                /* --------- */
area[building][prop(crc)>=1212][prop(crc)<1515]
{
        fill-color: #f4ff6b;
        text-halo-color: #f4ff6b;
        casing-width: 3;
        casing-color: black;

}
                /* --------- */
area[building][prop(crc)>=1515][prop(crc)<1818]
{
        fill-color: #81c0ff;
        text-halo-color: #81c0ff;
        casing-width: 3;
        casing-color: black;

}
                /* --------- */
area[building][prop(crc)>=1818][prop(crc)<2121]
{
        fill-color: #6b8e23;
        text-halo-color: #6b8e23;
        casing-width: 3;
        casing-color: black;

}
                /* --------- */
area[building][prop(crc)>=2121][prop(crc)<2424]
{
        fill-color: #e1bd6a;
        text-halo-color: #e1bd6a;
        casing-width: 3;
        casing-color: black;

}
                /* --------- */
area[building][prop(crc)>=2424][prop(crc)<2727]
{
        fill-color: #7fffd4;
        text-halo-color: #7fffd4;
        casing-width: 3;
        casing-color: black;

}
                /* --------- */
area[building][prop(crc)>=2727][prop(crc)<3030]
{
        fill-color: #8a2be2;
        text-halo-color: #8a2be2;
        casing-width: 3;
        casing-color: black;

}
                /* --------- */
area[building][prop(crc)>=3030][prop(crc)<3333]
{
        fill-color: #a52a2a;
        text-halo-color: #a52a2a;
        casing-width: 3;
        casing-color: black;

}
                /* --------- */
area[building][prop(crc)>=3333][prop(crc)<3636]
{
        fill-color: #f0b9a6;
        text-halo-color: #f0b9a6;
        casing-width: 3;
        casing-color: black;

}
                /* --------- */
area[building][prop(crc)>=3636][prop(crc)<3939]
{
        fill-color: #8fbc8f;
        text-halo-color: #8fbc8f;
        casing-width: 3;
        casing-color: black;

}
                /* --------- */
area[building][prop(crc)>=3939][prop(crc)<4242]
{
        fill-color: #1b7777;
        text-halo-color: #1b7777;
        casing-width: 3;
        casing-color: black;

}
                /* --------- */
area[building][prop(crc)>=4242][prop(crc)<4545]
{
        fill-color: #ff1493;
        text-halo-color: #ff1493;
        casing-width: 3;
        casing-color: black;

}
                /* --------- */
area[building][prop(crc)>=4545][prop(crc)<4848]
{
        fill-color: #0072e2;
        text-halo-color: #0072e2;
        casing-width: 3;
        casing-color: black;

}
                /* --------- */
area[building][prop(crc)>=4848][prop(crc)<5151]
{
        fill-color: #008f00;
        text-halo-color: #008f00;
        casing-width: 3;
        casing-color: black;

}
                /* --------- */
area[building][prop(crc)>=5151][prop(crc)<5454]
{
        fill-color: #ffcc00;
        text-halo-color: #ffcc00;
        casing-width: 3;
        casing-color: black;

}
                /* --------- */
area[building][prop(crc)>=5454][prop(crc)<5757]
{
        fill-color: #BF9017;
        text-halo-color: #BF9017;
        casing-width: 3;
        casing-color: black;

}
                /* --------- */
area[building][prop(crc)>=5757][prop(crc)<6060]
{
        fill-color: #adff2f;
        text-halo-color: #adff2f;
        casing-width: 3;
        casing-color: black;

}
                /* --------- */
area[building][prop(crc)>=6060][prop(crc)<6363]
{
        fill-color: #ff69b4;
        text-halo-color: #ff69b4;
        casing-width: 3;
        casing-color: black;

}
                /* --------- */
area[building][prop(crc)>=6363][prop(crc)<6666]
{
        fill-color: #cd5c5c;
        text-halo-color: #cd5c5c;
        casing-width: 3;
        casing-color: black;

}
                /* --------- */
area[building][prop(crc)>=6666][prop(crc)<6969]
{
        fill-color: #7d5a07;
        text-halo-color: #7d5a07;
        casing-width: 3;
        casing-color: black;

}
                /* --------- */
area[building][prop(crc)>=6969][prop(crc)<7272]
{
        fill-color: #824600;
        text-halo-color: #824600;
        casing-width: 3;
        casing-color: black;

}
                /* --------- */
area[building][prop(crc)>=7272][prop(crc)<7575]
{
        fill-color: #f08080;
        text-halo-color: #f08080;
        casing-width: 3;
        casing-color: black;

}
                /* --------- */
area[building][prop(crc)>=7575][prop(crc)<7878]
{
        fill-color: #F75617;
        text-halo-color: #F75617;
        casing-width: 3;
        casing-color: black;

}
                /* --------- */
area[building][prop(crc)>=7878][prop(crc)<8181]
{
        fill-color: #54d954;
        text-halo-color: #54d954;
        casing-width: 3;
        casing-color: black;

}
                /* --------- */
area[building][prop(crc)>=8181][prop(crc)<8484]
{
        fill-color: #ba55d3;
        text-halo-color: #ba55d3;
        casing-width: 3;
        casing-color: black;

}
                /* --------- */
area[building][prop(crc)>=8484][prop(crc)<8787]
{
        fill-color: #9370db;
        text-halo-color: #9370db;
        casing-width: 3;
        casing-color: black;

}
                /* --------- */
area[building][prop(crc)>=8787][prop(crc)<9090]
{
        fill-color: #ff7c00;
        text-halo-color: #ff7c00;
        casing-width: 3;
        casing-color: black;

}
                /* --------- */
area[building][prop(crc)>=9090][prop(crc)<9393]
{
        fill-color: #3cb371;
        text-halo-color: #3cb371;
        casing-width: 3;
        casing-color: black;

}
                /* --------- */
area[building][prop(crc)>=9393][prop(crc)<9696]
{
        fill-color: #707000;
        text-halo-color: #707000;
        casing-width: 3;
        casing-color: black;

}
                /* --------- */
area[building][prop(crc)>=9696]
{
        fill-color: #ff4444;
        text-halo-color: #ff4444;
        casing-width: 3;
        casing-color: black;

}



/****************************Relation*****************************/

relation[type=route] way[highway][setting("relation_viewer")]::core_motorroad 

{
        
        z-index: 12;
        casing-width: 6;
        casing-color: #D5B2ED;

}

/*Settings*/

setting::Z_Index_Check {
    type: boolean;
    label: tr("Z_Index_Check");
    default: false;
}

/* Visible Bridges and Tunnels */


way[bridge=yes]::core_bridge


{
    
set .bridge_default;

}

way.bridge_default[setting("Z_Index_Check")] {

    major-z-index: 2;
    object-z-index: -1;
    width: 13;
    casing-width: 2;
    dashes: 2,4;
    casing-color: #26d4d4;
    color: black;
    opacity: 1;
}


way[bridge=aqueduct]::core_bridge,
way[bridge=cantilever]::core_bridge,
way[bridge=covered]::core_bridge,
way[bridge=low_water_crossing]::core_bridge,
way[bridge=trestle]::core_bridge,
way[bridge=viaduct]::core_bridge,
way[bridge=movable]::core_bridge

{
 
set .bridge_secondary;


}

way.bridge_secondary[setting("Z_Index_Check")] {
    major-z-index: 2;
    object-z-index: -1;
    width: 15;
    casing-width: 2;
    casing-color: #FFB573;
    casing-dashes: 3,3;
    color: #26d4d4;
    opacity: 1;
}


way[tunnel=yes]::core_tunnel, 
way[tunnel=culvert]::core_tunnel,
way[tunnel=building_passage]::core_tunnel,
way[tunnel=avalanche_protector]::core_tunnel 

{
  set .tunnel_default;
}

way.tunnel_default[setting("Z_Index_Check")]

{
    major-z-index: 2;
    object-z-index: -1;
    width: 10;
    dashes: 5,5;
    casing-width: 3;
    casing-color: black;
    casing-dashes: 5,5;
    color: #919191;
    opacity: 1;
}

/* Style for various Layers */


way["layer"=~/^(-9|-8|-7|-6|-5)$/][setting("Z_Index_Check")]::layer {
    set layer;
    z-index: -5;
    color: layer_minus5#ff0000;
}
way["layer"="-4"][setting("Z_Index_Check")]::layer {
    set layer;
    z-index: -4;
    color: layer_minus4#A64B00;
}
way["layer"="-3"][setting("Z_Index_Check")]::layer {
    set layer;
    z-index: -3;
    color: layer_minus3#EA69A6;
}
way["layer"="-2"][setting("Z_Index_Check")]::layer {
    set layer;
    z-index: -2;
    color: layer_minus2#ff7519;
}
way["layer"="-1"][setting("Z_Index_Check")]::layer {
    set layer;
    z-index: -1;
    color: layer_minus1#ffBA00;
}
way["layer"="0"][setting("see_layer_0")]::layer {
    set layer;
    z-index: 0;
    color: layer_0#b8b8b8;
}
way["layer"="1"][setting("Z_Index_Check")]::layer {
    set layer;
    z-index: 1;
    color: layer_1#8319f2;
}
way["layer"="2"][setting("Z_Index_Check")]::layer {
    set layer;
    z-index: 2;
    color: layer_2#6c8356;
}
way["layer"="3"][setting("Z_Index_Check")]::layer {
    set layer;
    z-index: 3;
    color: layer_3#FF6EF1;
}
way["layer"="4"][setting("Z_Index_Check")]::layer {
    set layer;
    z-index: 4;
    color: layer_4#98ED00;
}
way["layer"=~/^(9|8|7|6|5)$/][setting("Z_Index_Check")]::layer {
    set layer;
    z-index: 5;
    color: layer_5#FE77FF;
}

/* below bridge layer of default style, to see the bridge */

way.layer[setting("Z_Index_Check")]::layer {
    opacity: 0.9;
    width: 30;
    major-z-index: 1.9; 
}


/****************************************************/

 /*CHECKS ADD*/
/* Missing and Incorrect Layers on Bridges - Tunnels */

way[bridge=yes][!layer],
way[bridge=yes]["layer"=~/^(-9|-8|-7|-6|-5|-4|-3|-2|-1)$/],
way[bridge=aqueduct]["layer"=~/^(-9|-8|-7|-6|-5|-4|-3|-2|-1)$/],
way[bridge=cantilever]["layer"=~/^(-9|-8|-7|-6|-5|-4|-3|-2|-1)$/],
way[bridge=covered]["layer"=~/^(-9|-8|-7|-6|-5|-4|-3|-2|-1)$/],
way[bridge=low_water_crossing]["layer"=~/^(-9|-8|-7|-6|-5|-4|-3|-2|-1)$/],
way[bridge=trestle]["layer"=~/^(-9|-8|-7|-6|-5|-4|-3|-2|-1)$/],
way[bridge=viaduct]["layer"=~/^(-9|-8|-7|-6|-5|-4|-3|-2|-1)$/],
way[bridge=movable]["layer"=~/^(-9|-8|-7|-6|-5|-4|-3|-2|-1)$/],
way[embankment=yes]["layer"=~/^(-9|-8|-7|-6|-5|-4|-3|-2|-1)$/], 
way[bridge=aqueduct][!layer],
way[bridge=cantilever][!layer],
way[bridge=covered][!layer],
way[bridge=low_water_crossing][!layer],
way[bridge=trestle][!layer],
way[bridge=viaduct][!layer],
way[bridge=movable][!layer],
way[tunnel=yes][!layer],
way[tunnel=yes]["layer"=~/^(9|8|7|6|5|4|3|2|1)$/], 
way[tunnel=culvert][!layer],
way[tunnel=building_passage][!layer],
way[tunnel=avalanche_protector][!layer]

 {
    
    set .missl;
}

way.missl[setting("Z_Index_Check")]

 {
    
    color: yellow;
    dashes-background-color: red;
    dashes: 4,24;
    opacity: 1;
    width: 16;
    text: tr("Missing Layer - or - Wrong Value");
    text-color: black;
    font-size: 31;
    text-halo-color: red;
    text-halo-radius: 2;
    casing-width: 1;
    casing-color: yellow;
}


/***********************************************/

/* report wrong value of layer */
way!.layer[layer][setting("Z_Index_Check")]::layer {
    color: orange;
    dashes-background-color: red;
    dashes: 4,9;
    opacity: 1;
    width: 16;
    text: tr("Incorrect value");
    text-color: black;
    font-size: 31;
    text-halo-color: red;
    text-halo-radius: 2;
    casing-width: 1;
    casing-color: yellow;
}


/********************Crossing levels********************/
/*

way[highway]["layer"="1"]  way[highway]["layer"="1"],
way[highway]["layer"="2"]  way[highway]["layer"="2"],
way[highway]["layer"="3"]  way[highway]["layer"="3"], 
way[highway]["layer"="4"]  way[highway]["layer"="4"],
way[highway]["layer"="5"]  way[highway]["layer"="5"],
way[highway]["layer"="6"]  way[highway]["layer"="6"],
way[highway]["layer"="7"]  way[highway]["layer"="7"],
way[highway]["layer"="8"]  way[highway]["layer"="8"],
way[highway]["layer"="9"]  way[highway]["layer"="9"],
way[highway]["layer"="-1"]  way[highway]["layer"="-1"],
way[highway]["layer"="-2"]  way[highway]["layer"="-2"],
way[highway]["layer"="-3"]  way[highway]["layer"="-3"],
way[highway]["layer"="-4"]  way[highway]["layer"="-4"],
way[highway]["layer"="-5"]  way[highway]["layer"="-5"],
way[highway]["layer"="-6"]  way[highway]["layer"="-6"],
way[highway]["layer"="-7"]  way[highway]["layer"="-7"],
way[highway]["layer"="-8"]  way[highway]["layer"="-8"],
way[highway]["layer"="-9"]  way[highway]["layer"="-9"] 
{
        set .conflict;
}


way.conflict {
        z-index: 5;
        color: #8B864E;
        text-halo-color: white;
        casing-color: red;
        text: tr("CONFLICTING LAYERS");
        font-size: 30;
        width: 10;
        casing-width: 15;
        dashes: 25,25;
}



/* "deprecated" tags 
     historic=museum -> tourism=museum 
     man_made=power_wind -> power=generator and power_source=wind 
     man_made=power_hydro -> power=generator and power_source=hydro 
     man_made=power_fossil -> power=generator and power_source=fossil 
     man_made=power_nuclear -> power=generator and power_source=nuclear 
     amenity=park_bench -> amenity=bench 
     amenity=signpost -> information=guidepost 
     amenity=emergency_phone -> emergency=phone 
     highway minor - classification now more detailed 
     highway=stile -> barrier=stile 
     highway=gate -> barrier=gate 
     highway=cattle_grid -> barrier=cattle_grid 
     highway=toll_booth -> barrier=toll_booth 
     highway=viaduct -> bridge=viaduct 
     railway=viaduct -> bridge=viaduct 
     waterway=aqueduct -> bridge=aqueduct 
     natural=marsh -> natural=wetland 
     leisure=zoo -> tourism=zoo 
     power=station -> power=plant or power=sub_station 
*/

/*******************************************oneway visibility****************************************/

